outputs/supervised/supervised_model.pth (torch, 406071 bytes, 4 tensors)

model.0.weight f4 [128, 784]
00000000: 2eca c8bc d0a0 66bb 57ab 003d a2ac 893c
00000010: 846c 2d3c 3af4 99bc 651c f8bc d25c 2fbc
00000020: ce2f 833c 4c90 c93c b352 f9bc 0cc1 d5bc
00000030: 4813 103d 4fbd 8b3b 5893 753c 0a0b 16bc
00000040: cef4 35bc 1c8a 2b3c fc3e 58bc 28f0 6d3c
00000050: 515f 083d 7354 08bd 6403 0ebc 4c1c 99bc
00000060: 80b6 043c f03a 653c 4885 f73b fc5d f2bc
00000070: 5522 b0bc c66e 55bc 3cb2 f1bc d542 f0bc
00000080: 3fbd 513c f96f 053d f021 79bc e836 c2bc
00000090: 2708 163d fd6e f53d 9074 b53d e0a2 b83d
000000a0: 6e03 a23d 0ab4 453d 84a6 9b3d 2fbb 163e
000000b0: 0548 213e f960 363e 772a 5b3e 4004 033e
000000c0: aa1e df3d b840 483d aa99 763d 88fb 253d
000000d0: e718 12bd 344e 393c a0cc 413c 50cf 573b
000000e0: 1026 3d3c 75f2 acbc 359d 893c 5a34 793c
000000f0: 187a 6d3d 2d56 213d 024b 833c b7ad 4a3d
00000100: a46e 8d3d 788a 153d 0434 ec3d b5f8 ed3d
00000110: ff3b 6e3e 3839 383e fd2b 003e bffe 8c3d
00000120: b6c9 9a3d 6dc3 0e3d 685a 023e b8f1 523e
00000130: 5ea5 c93d c9d9 d63d e7e2 313d 92e0 943d
00000140: 81af d63c ffbd f93c 305d abbc 081f fbbb
00000150: ec02 c83c 7ce7 1e3c 5121 8c3b d59c 703c
00000160: fcaf 233c 7340 ea3d e888 bc3d 82f7 3a3d
00000170: e89b 6a3d b63e b43d f89d 42bc d51e 9fbd
00000180: 9e24 99bd 2385 d4bd d8f2 9dbc 0cfb 88bd
00000190: 66e2 bfbd 7b87 34bc 5aad 06bc 535b 353b
000001a0: 0cc5 0cbc dc45 6a3d fee5 3d3e 1528 373e
000001b0: 0df2 193d 6c8b 0f3d 7ac6 19bc 001e 683b
000001c0: fc12 42bc 3060 e13b 7b0c cc3a bae6 d2bd
000001d0: 58b6 f9bb 3c11 183b b1e4 84bc da47 ddba
000001e0: 47cf 503d 4622 a23c c6dd c6bd 013e 34be
000001f0: 99ea 35be 97dd 4dbe a414 d9bd adfe 06be
00000200: c125 9fbd d190 263d 812e 393d b615 7e3d
00000210: 18f5 f03d e187 b43d 33ff b03d 646d 293e
00000220: 70ca bb3d 7c80 3d3d d195 873b 2da2 0c3d
00000230: fc5d 4e3c 4cb4 9b3c 5808 e23c 26f2 8dbd
00000240: e483 42bd a73b 4abd 8afe 8bbd 1c1b 363d
00000250: f92e 3c3d 5bb9 00bd 76f9 b6bd 9df7 27be
00000260: e788 4bbe 8ae1 b9bd 3d6e 873c f30d 1f3c
00000270: 6837 3abd bd5f 7e3d d372 833d 1816 103d
00000280: a8bb f93d 6712 bc3d 80b3 8b3c ef86 413d
00000290: f98f 613d 1a3b 043e 405a 043d 2f18 d03c
000002a0: 2c23 c0bc 1452 0abe 4d12 e5bd 5e08 9fbd
000002b0: a86b 18bd 34cd abbd 3047 09be 5314 4b3c
000002c0: 2192 01bd de02 bcbd ca80 39be e3c1 52be
000002d0: 6a01 2cbe bc09 d2bd c673 3f3c 08f1 2c3d
000002e0: 553e 343d 4764 be3d ee9b e83d 6bc3 123d
000002f0: c576 8d3d 6bfd ee3c 637a 2cbc 54a3 1bbd
00000300: 4110 b03d 9ad4 e73d 941e 3f3d ab0d 13bc
00000310: 0575 dcbc b9e4 01be 58d4 16be aed0 44bd
00000320: f2f1 0fbd aaec eebd f428 d3bd 6a23 32bc
00000330: ae64 f5bb 7551 a6bd f897 28be 54c2 2fbe
00000340: c3fe d1bd dcd2 ad3c f057 fb3d a6cc 3f3d
00000350: 8ebf 7d3d 3157 c23d feea bb3c 50f4 7a3d
00000360: fc46 c53c a74b 603d ea62 02bb 042d 20bd
00000370: d61d d6bb 045f a83d cb3b 763d 957f cd3c
00000380: 725d 5bbc a3e3 a9bd ed56 cdbb 0a52 09be
00000390: 378b 26be 6bab d8bd 114e aebd a380 86bb
000003a0: 8918 a7bc 212b 0ebe cf9b 2dbe 6cf6 14be
000003b0: acfd ea3a 27b8 cd3d 1994 d23d 9a9b 1f3d
000003c0: 1c49 51bd 65b0 5dbd d0f3 5bbd bda3 313d
000003d0: 880c 86bd 47f8 763b 3da6 d4bd 243e 8fbd
000003e0: 22f1 99bd a7e0 4e3c 981f 6c3d 758f d3bc
000003f0: f668 e93c c04b 8c3b 99e9 7e3b 367b edbd
-0.02451047 -0.0035191067 0.031413402 0.01680595 0.010584954 -0.018793214 -0.030286977 -0.010703282
0.016014006 0.024604939 -0.030434942 -0.026093028 0.035174638 0.0042645107 0.014988743 -0.009157905
-0.011105729 0.01046994 -0.01319861 0.01452259 0.033294026 -0.033283662 -0.008667801 -0.01869025
0.008100152 0.013991103 0.00755373 -0.02958583 -0.021500746 -0.013026899 -0.029503934 -0.029328743
0.012801467 0.03257749 -0.015205845 -0.023707822 0.03662887 0.1198406 0.08860123 0.09015441
0.079108104 0.0482674 0.0760012 0.14719842 0.1575013 0.1781043 0.21402918 0.1279459
0.108945206 0.048889846 0.06020514 0.040523082 -0.03566828 0.011310149 0.011828572 0.0032929964
0.011544719 -0.021111706 0.016798595 0.0152102355 0.057977766 0.039388824 0.016026977 0.049482074
0.06905869 0.036509007 0.11533359 0.11619703 0.23265074 0.17990577 0.1251678 0.068845265
0.075580046 0.03485434 0.127298 0.20600021 0.098459944 0.10490758 0.04342928 0.07269396
0.026206734 0.030486105 -0.020918459 -0.0076636113 0.024415456 0.009698745 0.0042764326 0.014685829
0.009990688 0.11438074 0.092058 0.045646198 0.05727759 0.08801024 -0.011878483 -0.077695526
-0.07477687 -0.10376956 -0.019280836 -0.066885084 -0.09369354 -0.011018629 -0.008220041 0.0027672842
-0.0085919015 0.05719553 0.18544766 0.17886384 0.037584353 0.035045072 -0.009385699 0.0035418272
-0.011845347 0.0068779215 0.0015567684 -0.10297914 -0.007620614 0.0023203632 -0.01622233 -0.0016882375
0.050978925 0.019791733 -0.09710269 -0.17601778 -0.17765273 -0.20104061 -0.1059964 -0.13183089
-0.07770873 0.04066545 0.045210365 0.062032424 0.11765498 0.08814979 0.086424254 0.16545635
0.09169471 0.04626511 0.0041377326 0.03433435 0.01259565 0.01900687 0.02759187 -0.06930952
-0.047489062 -0.049373295 -0.06835659 0.044459447 0.045943234 -0.03142677 -0.089343 -0.1640305
-0.19876443 -0.09076221 0.016532058 0.009707916 -0.045462996 0.062103022 0.06418385 0.03517732
0.12193996 0.091831975 0.017053366 0.047247823 0.055068944 0.1291317 0.03231263 0.025402157
-0.023454271 -0.13507873 -0.11185131 -0.07765268 -0.037212044 -0.08388749 -0.13406062 0.012394982
-0.0316335 -0.091802344 -0.18115535 -0.20581774 -0.16797414 -0.10255763 0.011685317 0.042222053
0.044004757 0.0929647 0.11357866 0.035830896 0.06907419 0.029173573 -0.010527226 -0.03799756
0.0859685 0.113198474 0.04666002 -0.008975427 -0.026911268 -0.12684907 -0.1472944 -0.048050575
-0.035142846 -0.11666234 -0.103105456 -0.010872701 -0.0074888086 -0.081210054 -0.16464221 -0.17163974
-0.1025367 0.02121871 0.12272632 0.046826027 0.06195026 0.09489287 0.022939201 0.06126815
0.0240817 0.054759648 -0.0019895383 -0.03910543 -0.0065343184 0.08221248 0.060115617 0.02508525
-0.013388978 -0.082953714 -0.006266466 -0.13410202 -0.16264044 -0.105795704 -0.08510984 -0.00410469
-0.020397441 -0.1388364 -0.16953968 -0.14547127 0.0017928383 0.1004489 0.10282154 0.038966753
-0.051095113 -0.0541233 -0.053699315 0.043369044 -0.06545359 0.0037684606 -0.1038327 -0.06994274
-0.075166956 0.0126268035 0.057647318 -0.025825242 0.028492432 0.004281491 0.003889656 -0.11595766

model.0.bias f4 [128]
00000000: 44a8 e63d 8723 7d3c 690e 853d 467d 183d
00000010: 0d10 073d 371b 633d 8e44 323c d3aa 3b3d
00000020: bae9 bfbc 667e adbb 333e b73d e1f5 963c
00000030: 9a08 9039 a096 d73c dccb 3739 f9a5 e73c
00000040: b306 93bc 5ee5 06bd af8b b0bc a0f4 90bb
00000050: db26 51bc 531b 123d e12b 6b3d 6ea0 5e3c
00000060: 621d 0abd 1de6 8e3c 852f 483c 6257 c43d
00000070: 3ae1 ae3c 847d 893d 7ee7 ab3d 02ae 16bd
00000080: 865a f0bc 9371 f53c 45ff 993c a28f 5e3c
00000090: 6536 3dbc 8be8 6a3c 4d51 ef3c 5654 eabc
000000a0: aca3 2ebd 10f1 a3bc 8a06 f43c 4304 0b3d
000000b0: 68e9 d13a 1bba 76bc 7163 783b 15fa e43c
000000c0: 25f7 973d 20d0 04bc bd03 203d d86a f53b
000000d0: 5d39 283d 6264 a83c 7414 9e3c d4fc 073d
000000e0: 4347 b13c 82f9 a4bc ba46 573d a74c efbb
000000f0: de77 e43c 66af 933d b07b 943a b54a 1a3c
00000100: 7ad1 463d 4cbc 023d 150a 493d 8835 583d
00000110: a424 843d 6b4f 1b3d c34e 9e3c cebe e93c
00000120: f0eb bebb c7e8 983d 6b81 213d a69d 573c
00000130: f94d c83c e702 963c 168c 263d b829 6d3d
00000140: e266 e83c b37d 37bd 747b c13b d401 083d
00000150: d82e 3b3d 69b0 4c3d 79b7 173d dfb6 97bc
00000160: 3362 5a3c 9673 a5bc 5ec4 193d 4dbb 00bd
00000170: b992 c03d 2b87 6e3d 2ac5 833d d982 a23c
00000180: 3d3a 5f3d 860d 703d 1767 03bc 004a 583d
00000190: e882 873d 94e4 0e3d 0e70 093d d639 03bc
000001a0: bcc4 3bbc d1cb 9d3c 6d38 90bd dddb 9bbb
000001b0: ce8a ac3c fd52 043d 6ff4 883d 547f 683b
000001c0: 2496 483d 72d1 7c3d 2141 fcbb fefb adbc
000001d0: da1b 3b3d b09d 9c3d 0a05 953c 59b8 093d
000001e0: 5b1e 723d 1a5c ed3b daad 873d 326d 353d
000001f0: 8857 68bc 53a8 983c 78b0 abbc 2a05 8b3d
0.11262563 0.015450365 0.06496889 0.037228845 0.03297429 0.055445876 0.0108806025 0.045817208
-0.02342688 -0.005294609 0.089474104 0.018427791 0.0002747223 0.02631694 0.00017528184 0.028277384
-0.01794753 -0.032933585 -0.021550981 -0.004423693 -0.0127656115 0.03567059 0.057414893 0.013588054
-0.033719428 0.017443711 0.012218361 0.095869794 0.02134763 0.06713393 0.08393763 -0.03678704
-0.02934004 0.029961383 0.01879848 0.013584049 -0.011548613 0.014337669 0.029213572 -0.028604668
-0.04263656 -0.020012408 0.029788274 0.03393961 0.0016014995 -0.015059019 0.0037901069 0.02795128
0.07420186 -0.0081062615 0.039066065 0.0074895434 0.04107033 0.020555679 0.019296862 0.0332001
0.021640426 -0.020138506 0.052557684 -0.007302839 0.027889188 0.07211189 0.0011328366 0.009417226
0.048539616 0.031917855 0.04908188 0.052785426 0.06452301 0.037917536 0.019324666 0.028533366
-0.005826466 0.07466274 0.039430063 0.013160145 0.024451243 0.01831193 0.04066094 0.057901114
0.02836937 -0.04479761 0.0059046093 0.03320487 0.04569897 0.049972925 0.037040208 -0.018519817
0.013329077 -0.020196717 0.037540786 -0.031428624 0.09402985 0.058234375 0.064340904 0.019837784
0.0544989 0.058606647 -0.008020184 0.052804947 0.06616765 0.034885958 0.03355413 -0.008009395
-0.011460479 0.019262226 -0.07042012 -0.0047564344 0.021062281 0.032305706 0.06687247 0.0035476284
0.04897131 0.06172318 -0.0076981937 -0.021238323 0.04568086 0.07647264 0.01819088 0.033623073
0.05911098 0.0072436454 0.066249564 0.04429359 -0.014181025 0.01863495 -0.02095817 0.06788094

model.2.weight f4 [3, 128]
00000000: 4921 d3be 55a2 0a3e 934f babd 9e7c 93bd
00000010: 4435 be3d ed71 e43d 9988 1b3e a3f5 07be
00000020: ff51 f93d 3c18 9e3d 5986 1dbe 7a56 28bc
00000030: 7405 713d 117e 3f3e 78dd a8bd 205e 99bd
00000040: fc99 6fbe d4bf 173e b133 703d fc8d e7be
00000050: 0494 2a3d 9896 1abd 81bc bfbd 2ad4 1f3d
00000060: 52f8 eb3d f142 18be 6d49 02be 6458 82be
00000070: b175 96bd 1f61 05bf de21 12be 479a 5a3e
00000080: 5142 89bc 20dd 72be cf21 99bd 1b37 823c
00000090: 77a6 e3be b215 a63d f1fd ddbd 3dc6 f73d
000000a0: 4706 8b3c d83d ac3c e78f 32bc 561e 1b3e
000000b0: 8380 bdbd 4370 de3d cf6d dc3d a10b 1e3e
000000c0: 836f 4abe fd40 05bd 04d9 4b3e c0ec 4dbd
000000d0: 9a0e b83d 7e97 9c3d 90c3 bdbd fa93 203e
000000e0: 5ccf 3bbe 560d 263e 6a59 19be af16 27be
000000f0: 24d4 293e 2077 a4bd 8038 9c3d b015 ce3d
00000100: fca1 b7bd c359 d23d 3a91 453e 3253 edbd
00000110: 42a1 d6bd b392 36be 87cb b5bd a6fa f73d
00000120: 417c 1a3d 9a8a 123e c0e4 00be 715c 4f3d
00000130: 9aa6 c13d 470d 62bd 03fb b4bd 4f42 0bbe
00000140: 0b67 9c3d 5de4 533d e4f3 db3d 08c2 18be
00000150: 831c 4b3e e8fa f4bc d3b0 e1bd 6d1e 393e
00000160: b4e2 943d 2a3c a73d c994 d73d 71a1 0c3e
00000170: 890c 81be 35d2 cd3c f4fe ffbd 433b d43c
00000180: 5f42 193d f551 e2bd 2301 b13d cfac 79bd
00000190: 9c3c 5fbe c502 5d3e dbb7 f63c aef3 33bd
000001a0: 5d1c d83d f9f0 6dbd bb4d c7be abd1 003e
000001b0: c2d1 853d 0ed7 ca3c ff7c 89be a8ef e03d
000001c0: 64e6 8bbd a629 00be db25 773d 5b10 123e
000001d0: 010f e1bd e6cc 10be e777 50be b46c edbd
000001e0: a9f9 eebd 3ece 023e 2910 12be e5ac 203e
000001f0: 8861 34be 4ca0 c63d 3bed 923c 468e 3fbd
00000200: 14d9 903e f1e8 87bd 17ba 0f3e 62c0 6fbe
00000210: d016 9dbe ca1a 8ebe d941 ff3d aba0 fcba
00000220: 914c 0abe 4920 84be 6403 0d3e 9f1a 043e
00000230: 9292 3bbe dcd9 7dbe e95d 35bd 400b ee3c
00000240: a9c4 a9bd 7f28 68bd 0e46 c03d c377 bbbd
00000250: 00cf c33d 2137 a7bd 110e 8c3d 1480 4dbe
00000260: ec4e 973c fc9d a63d 3d20 14be bd66 913d
00000270: e43e 9dbd 1f55 7e3e f3fb 213e c655 d7be
00000280: 557b 043d 2441 40be 6211 563e 50ca 77be
00000290: 7132 363e e5d6 4bbe 0493 a03d 9d31 fabd
000002a0: aab6 34be d063 8b3c d0ec 9abe 155f 7bbe
000002b0: 40e0 143d 313a babd 0e82 4dbe 8a19 f33d
000002c0: 4061 923d f518 40be fa82 1c3e 2bf9 4bbe
000002d0: 7838 9abd 1713 02be 9571 a73e 5f09 cfbd
000002e0: 2c59 f73d b128 35be f31c eabd 0271 f13b
000002f0: 39eb 003e 0eff 983d 37cd 26be a8c3 1fbe
00000300: 2eb0 0a3e 1f21 29be 9f56 f03d 05dd 683d
00000310: fd8f 9e3d a1fb 22be b92b cf3c 5b49 453d
00000320: 272a 2fbe e3ec b53d 4791 133e a377 243d
00000330: 81c0 b9bd 19ac 14be c373 ec3d e347 583d
00000340: c55c c7bd 1e03 0abe 012b 7e3d ea70 c43c
00000350: 8c98 103e 32e0 b8bc 816d 053e 34bb 2b3e
00000360: c725 03be fe5b b83d 4403 153e 0df8 f8bd
00000370: 3c5d 3c3e a54a 273e 1482 2a3e 5ae2 6cbe
00000380: 4303 a03c 1189 723d e62d dabd 3270 1fbe
00000390: 1907 17be 94f2 fa3d e400 64be 639d 273c
000003a0: 0969 bdbd db3e 093d 4113 8dbd 6778 18be
000003b0: 6de5 ecbd 7601 94be b6c1 b53e 5f03 dfbd
000003c0: 6627 3d3e a905 ef3d db87 1a3c a83c 103e
000003d0: 37bb 82be d36a f93d 69b0 b7bc 6f00 a5bd
000003e0: 9398 f13b e443 90be 8e3c ae3d 8673 f53d
000003f0: 5321 423d 6102 33be 7479 6ebe 9704 0fbe
-0.41236332 0.13538487 -0.09097209 -0.07201503 0.09287503 0.11154542 0.15188827 -0.13277297
0.12173843 0.07719466 -0.15383281 -0.010274524 0.05884309 0.18700434 -0.08245367 -0.07488656
-0.23398584 0.1481927 0.058643047 -0.45225513 0.041645065 -0.037741274 -0.09362126 0.039020695
0.11521973 -0.14869286 -0.12723322 -0.25458062 -0.073466666 -0.5210132 -0.14270732 0.21347915
-0.016755255 -0.23717165 -0.074771516 0.015895417 -0.4446294 0.08109607 -0.10839451 0.12098358
0.016970767 0.021025583 -0.010898567 0.15148291 -0.09253027 0.10861256 0.10763132 0.15434124
-0.19769101 -0.03253268 0.19907004 -0.05027461 0.0898716 0.07646082 -0.09265816 0.15681449
-0.1834082 0.16216025 -0.14975515 -0.16317247 0.16584831 -0.08030534 0.07627964 0.1006273
-0.08966443 0.10271027 0.19293681 -0.11588134 -0.10479976 -0.17829399 -0.088767104 0.12108354
0.037716154 0.14310685 -0.12587261 0.05062527 0.09455605 -0.055188444 -0.08836939 -0.13599513
0.076368414 0.051731456 0.10739878 -0.14917767 0.19835095 -0.029904798 -0.11020055 0.18078013
0.07269803 0.08165772 0.105264254 0.1373346 -0.25204876 0.025124649 -0.124998 0.025907164
0.037416812 -0.11050788 0.08642795 -0.06095582 -0.21800464 0.21583088 0.030116966 -0.043933563
0.10552285 -0.058091138 -0.3892649 0.12579982 0.06534149 0.02476075 -0.26853177 0.10983211
-0.06831053 -0.12515888 0.060338836 0.14264052 -0.1098919 -0.14140663 -0.20358239 -0.11592999
-0.11668713 0.12773988 -0.14263977 0.15690954 -0.1761533 0.09698543 0.017935386 -0.046766542
0.28290617 -0.06636227 0.14035831 -0.23413232 -0.30681467 -0.27754813 0.12463731 -0.0019273957
-0.1350577 -0.25805882 0.13770825 0.1290078 -0.18317631 -0.24790138 -0.044279013 0.029058099
-0.08289463 -0.056679245 0.09388362 -0.09153702 0.095609665 -0.08164812 0.068386205 -0.20068389
0.01847025 0.08135602 -0.14465423 0.07099674 -0.07678011 0.24837159 0.15818767 -0.42057627
0.03234418 -0.18774849 0.20905069 -0.2419827 0.1779268 -0.19906195 0.07840541 -0.12216494
-0.17647806 0.017015368 -0.302588 -0.2454799 0.036346674 -0.090931304 -0.20069143 0.118701056
0.07147455 -0.1875952 0.15284339 -0.19919269 -0.07530302 -0.12702595 0.32703844 -0.10109209
0.12077555 -0.17691304 -0.11431303 0.007368208 0.1258973 0.07470523 -0.16289221 -0.1560198
0.1354377 -0.16516541 0.11735272 0.056851406 0.07742307 -0.15916301 0.025289403 0.04816566
-0.17105924 0.08883073 0.14410888 0.040153157 -0.0906992 -0.14518775 0.11545517 0.05280293
-0.09734491 -0.13477752 0.06205273 0.023979623 0.14120692 -0.022567842 0.13030054 0.16770631
-0.1280738 0.09001921 0.14552027 -0.12156687 0.18394941 0.16337068 0.16651183 -0.23133221
0.019532805 0.059212748 -0.10653286 -0.15570143 -0.14748801 0.12253299 -0.22265965 0.010230395
-0.092485495 0.03350721 -0.06888438 -0.1488968 -0.11567197 -0.28907365 0.35499352 -0.10889315
0.1847206 0.116710015 0.0094318045 0.14085639 -0.2553346 0.12178578 -0.022422986 -0.08056723
0.0073729246 -0.28176796 0.08507644 0.11984925 0.04739506 -0.17481376 -0.23288518 -0.13966595

model.2.bias f4 [3]
00000000: 1a23 75bc 583c 77bc bd20 5dbd
-0.014961982 -0.015090071 -0.0539863
