checkpoints/supervised/supervised_model.pth (torch, 406071 bytes, 4 tensors)

model.0.weight f4 [128, 784]
0	0x3d042e9d	0.032271016
1	0x3c9e4338	0.019319162
2	0x3c9933ea	0.018701512
3	0xbbe40708	-0.006958846
4	0xbcec1d71	-0.028822633
5	0xbab9b340	-0.00141678
6	0x3d01f6bb	0.03172944
7	0x3ca0a2bc	0.019608848
8	0x3c63cd10	0.013903871
9	0x3cdcb10e	0.026939895
10	0x3c8b87d0	0.017032534
11	0xbc5fa4a0	-0.0136500895
12	0xbc55e89b	-0.013055946
13	0xbd08d749	-0.033408437
14	0xbb16b530	-0.002299618
15	0xbc825a25	-0.015912125
16	0x3c81efce	0.015861418
17	0xbc530e92	-0.012881892
18	0xbd06d6bb	-0.032919627
19	0x3d0be927	0.0341579
20	0x3bbd8ff8	0.0057849847
21	0x3cd420e6	0.025894593
22	0x3cb99430	0.02265367
23	0x3ca9bd00	0.020720005
24	0xbd03e002	-0.032196052
25	0x3cc7e168	0.024399474
26	0x3bf846a8	0.0075767823
27	0x3cec833a	0.028871167
28	0xbbd50094	-0.006500313
29	0x3c678234	0.014130164
30	0x3cd8b5ee	0.026453938
31	0x3d0d7dbb	0.034543734
32	0x3c87c4cb	0.01657333
33	0x3c8c33be	0.017114516
34	0xbc9fe8ad	-0.019520128
35	0xbcb1ab8f	-0.02168825
36	0xbcbd19b6	-0.023083549
37	0x3ad4da28	0.0016239332
38	0xbd854f47	-0.065092616
39	0xbd77e177	-0.060517754
40	0xbd0ea62c	-0.034826443
41	0xbd2a4c1f	-0.0415765
42	0xbd4c164b	-0.049825948
43	0xbd0a34c8	-0.033741742
44	0xbcf74e59	-0.030188726
45	0xbda635c3	-0.08115723
46	0xbd9c7257	-0.07638996
47	0xbd8bff2a	-0.06835778
48	0xbd36d10c	-0.044632956
49	0xbce37113	-0.027763879
50	0xbd720d49	-0.0590947
51	0xbdab61a0	-0.0836823
52	0x3cc0ba26	0.023526262
53	0x3cf6be26	0.030119967
54	0x3c536644	0.0129028
55	0x3cc35eee	0.023848977
56	0xba573140	-0.0008208938
57	0xbc4b8ff2	-0.012424456
58	0xbcdff708	-0.027339473
59	0x3c1aaf3a	0.009441191
60	0xbcda65c3	-0.026659852
61	0xbd03dd76	-0.032193623
62	0xbc7314e0	-0.01483652
63	0xbd294a76	-0.041330777
64	0xbd5636c4	-0.052298322
65	0xbdc54c91	-0.096337445
66	0xbe0d839c	-0.13819736
67	0xbd80068a	-0.06251247
68	0xbda6405a	-0.08117743
69	0xbd852f5c	-0.06503174
70	0xbe0bed5f	-0.13664769
71	0xbd84bb01	-0.06480981
72	0xbdffe2f5	-0.124944605
73	0xbd95120a	-0.07278831
74	0xbdccd53c	-0.10001609
75	0xbcf01097	-0.029304786
76	0xbd8bd696	-0.068280384
77	0xbcd645dd	-0.02615636
78	0xbd8551b9	-0.06509728
79	0xbd7dcf96	-0.061965548
80	0xbd20b01e	-0.03923046
81	0x3c404528	0.011735238
82	0x3bdcbbb0	0.0067362413
83	0x3c44cbb4	0.012011457
84	0x3c896574	0.01677201
85	0xbcefaf71	-0.029258462
86	0xbc2dccf4	-0.010607947
87	0xbcefd858	-0.029277965
88	0xbd63f1cb	-0.055650514
89	0xbd82daac	-0.063893646
90	0xbd6b7386	-0.05748322
91	0xbdc3ac6a	-0.0955437
92	0xbddfd617	-0.10929506
93	0xbdd1591f	-0.102220766
94	0xbe25fd32	-0.16209868
95	0xbe685ec7	-0.22692405
96	0xbe6b1c01	-0.22959901
97	0xbe9a251d	-0.3010644
98	0xbe66caac	-0.2253825
99	0xbe61c7e8	-0.22048914
100	0xbe375f06	-0.17907342
101	0xbe443f83	-0.19164853
102	0xbe64b704	-0.2233544
103	0xbe043f7e	-0.12914845
104	0xbe09044f	-0.1338055
105	0xbdb65246	-0.08902411
106	0xbdba202f	-0.0908817
107	0xbda1b39f	-0.07895588
108	0xbd829254	-0.06375566
109	0xbc8c6c54	-0.017141499
110	0xba35ce40	-0.00069353357
111	0x3c034e3c	0.008014258
112	0x3d0d7b9f	0.034541722
113	0x3c8ab345	0.016931185
114	0x3d4e7fde	0.050414912
115	0xbceecd63	-0.02915067
116	0xbdc9a095	-0.09845082
117	0xbdad2f15	-0.08456246
118	0xbde24680	-0.11048603
119	0xbe0f90fa	-0.14020148
120	0xbe3af78f	-0.18258499
121	0xbe5e3693	-0.21700506
122	0xbe8a5b79	-0.27022913
123	0xbe1e777d	-0.15475269
124	0xbdf48ee5	-0.119413175
125	0xbdd2a460	-0.10285258
126	0xbdda9ad0	-0.106740594
127	0x3c20f3eb	0.00982378
128	0xbc96487d	-0.018345112
129	0x3c9d678c	0.019214414
130	0xbd7c0fc8	-0.061538488
131	0xbe09fb24	-0.13474709
132	0xbe0658df	-0.13119839
133	0xbe136290	-0.14393067
134	0xbe3a853e	-0.1821489
135	0xbdefb00e	-0.11703502
136	0xbdaf22d7	-0.08551567
137	0xbd1623a0	-0.03665507
138	0xbcc2b22a	-0.023766596
139	0x3cb1739e	0.021661576
140	0xbd05d753	-0.032676052
141	0x3cc4237c	0.023942702
142	0xbc9183b2	-0.017762993
143	0xbced7f91	-0.028991492
144	0xbd9522fc	-0.07282063
145	0xbde96d61	-0.113978155
146	0xbe1dd75d	-0.15414186
147	0xbe2da938	-0.16959083
148	0xbe1693c0	-0.147048
149	0xbdb420ef	-0.08795344
150	0xbc543f2e	-0.012954516
151	0x3c663415	0.014050503
152	0x3b26a561	0.0025428163
153	0xbc2faadb	-0.010721887
154	0xbd252c44	-0.040325418
155	0xbb7ce76c	-0.0038590087
156	0x3b502d50	0.003176529
157	0x3abf5b8b	0.0014599425
158	0x3d79d7f7	0.060996976
159	0xbb40415f	-0.002933584
160	0xbbb3e79d	-0.005490257
161	0xbd21ebe9	-0.039531622
162	0xbd57dfff	-0.052703854
163	0xba82673f	-0.0009948983
164	0x3cf24b41	0.0295769
165	0xbda4da8f	-0.08049499
166	0x3b42df65	0.0029735204
167	0x3cf61d62	0.030043308
168	0xb9aef300	-0.00033368915
169	0xbd6cb020	-0.057785153
170	0xbdc17103	-0.094453834
171	0xbc185b6f	-0.009299143
172	0xbdd3ba01	-0.10338212
173	0xbe265a5b	-0.16245405
174	0xbdaeaa24	-0.085285455
175	0xbc828be7	-0.015935851
176	0xbc0cd8d9	-0.008596622
177	0x3b8f7c77	0.004378851
178	0x39ee8fdc	0.0004550208
179	0x3d9c5aa4	0.07634476
180	0x3d8bbbd3	0.06822934
181	0x3d3cfda6	0.046140336
182	0x3cd1ac0e	0.025594737
183	0x3cec57f7	0.028850539
184	0x3cac1a12	0.021008525
185	0x3d17f047	0.03709438
186	0x3d13aa9a	0.03605137
187	0x3d206c3f	0.03916573
188	0x3d1032bc	0.035204634
189	0x3a24b226	0.00062826497
190	0x3c7439f9	0.0149064
191	0x3b92cfba	0.0044803293
192	0x3cb69fb7	0.022292955
193	0xbd0e7b8f	-0.034785803
194	0xbd1d2c1c	-0.038372144
195	0xbd311b94	-0.04323919
196	0xbc305b4e	-0.010763956
197	0xbe260149	-0.16211428
198	0xbdd91d99	-0.106013484
199	0xbccf6b1e	-0.025319632
200	0xbdca3697	-0.098736934
201	0xbc4a7667	-0.012357331
202	0x3b4538bb	0.0030093628
203	0xbda9c0f4	-0.08288756
204	0x3c688d29	0.014193811
205	0xbb245568	-0.002507532
206	0xbc50bef2	-0.012740837
207	0x3d5b305d	0.05351292
208	0xbcabac55	-0.020956198
209	0x3c03e372	0.008049833
210	0x3d3ed9a0	0.046594262
211	0x3d5c1afb	0.053736668
212	0x3cc52069	0.024063306
213	0x3d43eb92	0.04783208
214	0x3cb3eaba	0.021962512
215	0x3af4dfde	0.001868244
216	0x3d257825	0.040397782
217	0x3d805157	0.06265514
218	0x3d974e95	0.07388035
219	0x3dc6afbd	0.09701488
220	0x3d932f32	0.07186736
221	0x3dbdce91	0.09267915
222	0x3c32c0cc	0.010910224
223	0x3c00996f	0.007849081
224	0xbd0a2be6	-0.03373327
225	0xbda6acd9	-0.08138437
226	0xbd833088	-0.06405741
227	0xbd107886	-0.03527119
228	0xbd3322b6	-0.043734275
229	0x3d8fba4d	0.07017956
230	0x3c42027b	0.011841412
231	0xbd5583e2	-0.052127726
232	0x3d1aa8a9	0.037758503
233	0x3c797b61	0.01522717
234	0x3c7e7e20	0.015533
235	0x3c477aa6	0.012175238
236	0xbc36b6de	-0.011151997
237	0xbd38d5eb	-0.045125883
238	0x3d1f84e9	0.038945112
239	0x3d107534	0.035268024
240	0x3d62a680	0.055334568
241	0x3ba9ba67	0.0051796916
242	0x3d8514d2	0.06498112
243	0x3caf7017	0.021415753
244	0xbcf96f39	-0.030448543
245	0x3c351993	0.011053461
246	0xbcd3cd58	-0.025854751
247	0x3d10924d	0.035295773
248	0x3e102f6c	0.1408059
249	0x3dd3513b	0.10318228
250	0x3c93b5b0	0.018030971
251	0x3cab0f80	0.020881414
252	0xbcaf3ff0	-0.021392792
253	0xbcf0d56a	-0.029398639
254	0xbca48623	-0.020083493
255	0xbc8cb274	-0.017174937

model.0.bias f4 [128]
0	0x3d3dec7c	0.046368107
1	0x3d1952a0	0.037432313
2	0x3d9671a3	0.07345893
3	0x3d7785f2	0.060430475
4	0x3ce6ccbd	0.028173799
5	0xbcbfdd4b	-0.02342095
6	0x3d2c618a	0.042085208
7	0xbba2d027	-0.0049686613
8	0x3d215a9c	0.039393052
9	0x3d4ceafa	0.05002878
10	0xbd02388a	-0.0317922
11	0x3cf52d4b	0.029928824
12	0x3d77c322	0.060488828
13	0xbd2fe607	-0.04294398
14	0xbd20849d	-0.03918897
15	0xbcfe6c14	-0.031057395
16	0x3cc0c211	0.023530038
17	0x3c871292	0.016488347
18	0x3c78825d	0.0151678
19	0x3d0a8687	0.0338197
20	0x3d455182	0.048173435
21	0x3ca929a6	0.020649742
22	0xbb793188	-0.0038023908
23	0x3d2c7003	0.04209901
24	0xbcb0f2f7	-0.02160023
25	0x3d3f67d1	0.046729866
26	0xbd254d0f	-0.040356692
27	0x3d366043	0.044525396
28	0x3ce59030	0.028022856
29	0x3be9f261	0.0071394895
30	0x3d7342ae	0.059389763
31	0xbc5e99b7	-0.013586453
32	0xbd2431fd	-0.040086735
33	0xbb0fc42b	-0.0021936994
34	0xbc4e9d3b	-0.012610729
35	0x3c9103df	0.017702041
36	0x3cde884f	0.027164606
37	0x3cb25209	0.021767633
38	0xbd4c4a03	-0.04987527
39	0xbcb585ed	-0.022158587
40	0x3dc368e9	0.095414944
41	0x3d9d548f	0.07682144
42	0x3d977fe4	0.0739744
43	0x3dec86bc	0.11549136
44	0x3d17a063	0.03701819
45	0x3d63c9f5	0.055612523
46	0x3da2987c	0.0793924
47	0x3bccf61b	0.006254924
48	0x3dd3e6b4	0.103467375
49	0x3cd31159	0.025765108
50	0xbce5489e	-0.027988728
51	0xbcdfa056	-0.027298134
52	0x3caefeb5	0.021361688
53	0x3ceb219b	0.028702548
54	0x3c3e473f	0.011613666
55	0x3cb37d95	0.021910468
56	0x3d42d7ee	0.047569208
57	0x3d55e13f	0.052216765
58	0x3d0a61fe	0.03378486
59	0x3cee422f	0.029084293
60	0x3d4a4bfb	0.049388867
61	0x3d22e6eb	0.039771
62	0x3da5213a	0.08062978
63	0xbc9e3305	-0.019311437
64	0x3d94523d	0.07242248
65	0x3d24c0fa	0.0402231
66	0x3d04f7ef	0.03246301
67	0x3a09b870	0.00052536186
68	0xbd4e74e7	-0.050404456
69	0x3d97f9ef	0.07420718
70	0x3c9cf50c	0.019159816
71	0x3da9c3c9	0.08289296
72	0x3c99d635	0.0187789
73	0x3dad01af	0.08447587
74	0xb94fb026	-0.00019806679
75	0xbaaf9836	-0.0013396803
76	0x3d8e2ab4	0.06941739
77	0x3ccb64de	0.02482837
78	0xbc2f8659	-0.010713183
79	0x3b23904c	0.0024957834
80	0x3d45d82f	0.048301872
81	0x3d0aae30	0.033857524
82	0x3ce061ea	0.027390439
83	0x3bd6c64d	0.006554401
84	0x3b6fc9e2	0.0036588837
85	0x3ddcba0d	0.10777674
86	0x3cd90dc0	0.026495814
87	0x3c07782c	0.008268397
88	0xbd18626e	-0.037203245
89	0x3d5781fe	0.052614205
90	0xbc00ee6c	-0.007869344
91	0x3adc1682	0.0016791376
92	0xbb9ceb71	-0.004788809
93	0x3c9b7fe2	0.018981878
94	0x3c12165c	0.008916464
95	0x3c968dc4	0.018378146
96	0x3d21eba4	0.039531365
97	0x3bc01fc7	0.005863163
98	0xbd296db6	-0.041364394
99	0x3d1ccc60	0.038280845
100	0x3ce8a5e3	0.028399413
101	0x3d807de2	0.0627401
102	0x3d90d402	0.07071687
103	0x3da02ab3	0.07820644
104	0xb98f5e18	-0.0002734519
105	0x3cfe5cc4	0.031050093
106	0xbd4e3610	-0.050344527
107	0x3cbbf8d7	0.022945805
108	0x3da01b0c	0.07817659
109	0xbb96f578	-0.004606899
110	0xbcc83ae0	-0.024442136
111	0x3d96263a	0.0733151
112	0xbbd7232c	-0.006565472
113	0xbb735baf	-0.0037133505
114	0x3d8e73b7	0.069556646
115	0x3cb1e7bd	0.021716947
116	0x3b713368	0.0036804322
117	0x3d43bc71	0.047787134
118	0x3b9257fc	0.004466055
119	0x3d5fb8c6	0.054619573
120	0x3db92bcd	0.090415575
121	0x3d2ff298	0.042955965
122	0x3be86a4a	0.007092749
123	0x3d8aca7b	0.06776901
124	0x3d39d847	0.045372274
125	0x3d57abd5	0.052654106
126	0x3ae28854	0.0017283061
127	0x3ce311c6	0.027718436

model.2.weight f4 [3, 128]
0	0xbc93c51e	-0.018038329
1	0xbea88c34	-0.32919466
2	0xbe836768	-0.2566483
3	0xbdb3e839	-0.08784527
4	0xbca8e9c2	-0.020619277
5	0x3f112b7d	0.5670698
6	0x3ca0e524	0.019640513
7	0x3e076092	0.13220432
8	0xbe90db1b	-0.28292164
9	0x3d08c74c	0.03339319
10	0x3e10e1b1	0.14148594
11	0x3dd6b93b	0.10484549
12	0xbe009f54	-0.12560779
13	0x3dcf6e32	0.1012844
14	0x3d90bb56	0.070669815
15	0x3d209018	0.03919992
16	0xbda172e0	-0.07883239
17	0xbbba00b8	-0.005676355
18	0x3e04cfbe	0.12969872
19	0xbe666b20	-0.22501802
20	0x3e0f85a8	0.1401583
21	0x3dcabb9d	0.09899066
22	0xbebed8fb	-0.37274918
23	0xbdaa9269	-0.08328707
24	0x3eb95c2b	0.3620313
25	0xbe470d1e	-0.19438598
26	0xbd9e7fc0	-0.0773921
27	0x3da0fd3d	0.07860801
28	0xbe30970b	-0.17245118
29	0x3d446342	0.047946222
30	0xbd93e1c1	-0.072207935
31	0x3db419a8	0.08793956
32	0xbd8b9751	-0.06815971
33	0x3dcb691c	0.099321574
34	0x3d9430ac	0.07235846
35	0xbdd217aa	-0.1025842
36	0xbd7c42e9	-0.061587248
37	0xbe1ae648	-0.15126908
38	0x3deb4e7b	0.11489578
39	0x3ded3d4f	0.11583959
40	0xbdcf2227	-0.10113936
41	0xbe030d2c	-0.12797993
42	0x3bfac8ea	0.0076533454
43	0xbe357153	-0.17719011
44	0xbd0ea985	-0.034829635
45	0xbc6be063	-0.01439676
46	0xbe7da71f	-0.24770783
47	0x3e60f750	0.21969342
48	0xbe7e0d4b	-0.24809758
49	0x3a17245b	0.000576561
50	0x3e503fdd	0.20336862
51	0x3e238544	0.15968806
52	0x3d9b18cd	0.0757309
53	0xbdf07b8d	-0.117423154
54	0xbce5b819	-0.028041886
55	0x3b892de8	0.0041863807
56	0xbe6fff87	-0.2343732
57	0xbd6ad6d2	-0.057333775
58	0x3d75ae46	0.059980653
59	0x3dacfa2d	0.08446155
60	0x3c88138a	0.01661088
61	0xbe4b1b1c	-0.1983456
62	0xbe35d2d0	-0.177562
63	0x3e02807f	0.1274433
64	0x3cad7b6a	0.021177012
65	0x3e8f78d2	0.28021866
66	0x3e6c48ba	0.23074618
67	0x3d6b6062	0.057464965
68	0x3e03fded	0.12889834
69	0xbe5043ad	-0.20338316
70	0x3df9886e	0.12184225
71	0xbd1be8bc	-0.03806375
72	0x3cc0beed	0.02352854
73	0xbe142335	-0.14466555
74	0x3e0e7a13	0.13913755
75	0xbdc79c92	-0.0974666
76	0x3c70b765	0.014692162
77	0xbe883ad0	-0.2660737
78	0xbd3ff8b2	-0.046868034
79	0x3c96dc47	0.018415583
80	0xbc1a2df0	-0.009410366
81	0xbcd56a93	-0.026051795
82	0xbb229431	-0.0024807567
83	0xbd0e279f	-0.034705754
84	0x3cc1389a	0.02358656
85	0xbeb01c35	-0.3439652
86	0xbe0f5d73	-0.14000492
87	0x39f82f3c	0.00047337438
88	0x3dcd104d	0.10012875
89	0xbd6d31ca	-0.05790881
90	0x3dbb0388	0.09131533
91	0x3deb54fa	0.11490817
92	0x3dc5b508	0.096536696
93	0xbe338c89	-0.17534079
94	0x3e22e0ff	0.15906142
95	0x3d96c77b	0.07362267
96	0xbe34f7b5	-0.17672618
97	0xbce98d95	-0.028509894
98	0xbd96de42	-0.07366611
99	0x3e253b33	0.16135864
100	0xbe1bb675	-0.1520632
101	0xbdfb503e	-0.12271164
102	0x3e7851db	0.24249975
103	0xbe5bff75	-0.21484168
104	0x3da6c25d	0.081425406
105	0xbe5019f1	-0.20322396
106	0x3e10294c	0.14078254
107	0xbe660b70	-0.224653
108	0xbde23ecc	-0.11047134
109	0x3d6b73cb	0.057483476
110	0x3e052723	0.1300321
111	0xbe390e87	-0.18071948
112	0xbd06ca36	-0.032907687
113	0x3dc812c0	0.09769201
114	0x398c76bb	0.00026791342
115	0xbe8602d7	-0.26174042
116	0x3e047773	0.12936191
117	0xbd0d6f62	-0.03453005
118	0x3d90e458	0.07074803
119	0xbe7999a5	-0.24375017
120	0xbe5e52e7	-0.21711312
121	0xbe241bd7	-0.16026245
122	0x3e10240c	0.14076251
123	0xbe3c29c0	-0.18375301
124	0x3d885f89	0.06658847
125	0xbe8a9e5e	-0.2707395
126	0x3dab03ef	0.0835036
127	0x3dc876d5	0.097882904
128	0xbe32a983	-0.17447476
129	0xbddb0d22	-0.10695864
130	0x3e099ed3	0.13439493
131	0xbd99a040	-0.075012684
132	0x3e24a4d9	0.1607851
133	0xbe5cbd26	-0.2155653
134	0xbe83465c	-0.25639617
135	0xbe4e0f69	-0.20123066
136	0x3e091442	0.13386634
137	0xbe5da279	-0.2164401
138	0xbe35bf01	-0.17748643
139	0xbe29b245	-0.1657191
140	0x3cb574dd	0.022150451
141	0x3cde7ffb	0.027160635
142	0xbe4a0b8a	-0.19730964
143	0xbd7dd722	-0.061972745
144	0xbd6778ac	-0.056511566
145	0x3d6aab64	0.057292357
146	0xbd91ce68	-0.07119447
147	0xbe414aae	-0.18876144
148	0xbe5cfcac	-0.21580762
149	0xbdf9c3b4	-0.121955305
150	0x3bb6e488	0.0055814423
151	0x3e0f1344	0.13972193
152	0xbeadea1a	-0.33967668
153	0x3dd5147e	0.10404299
154	0xbd496002	-0.049163826
155	0x3e393f1e	0.18090484
156	0x3cd5bab6	0.026090007
157	0xbe1b556d	-0.15169306
158	0xbe364d1d	-0.17802854
159	0x3db650ae	0.08902107
160	0x3d1a1229	0.037614975
161	0xbd7e2557	-0.06204733
162	0xbe013bce	-0.1262047
163	0x3e0c0c0e	0.13676473
164	0x3ddc6436	0.10761301
165	0xbdfc35ef	-0.123149745
166	0xbdb69465	-0.08915023
167	0xbd5c0a54	-0.053720787
168	0x3dd00bf1	0.10158528
169	0x3e438358	0.19093072
170	0xbe2cf1b2	-0.16889074
171	0x3dc6b76e	0.09702955
172	0x3e0a90f8	0.13531864
173	0xbe5088c5	-0.20364673
174	0x3e256b94	0.16154319
175	0x3739a100	1.1064345e-05
176	0x3dcdd9b7	0.100512914
177	0x3d9fe177	0.07806676
178	0x3dad5012	0.08462538
179	0x3dbb536e	0.09146772
180	0xbe5aed18	-0.21379507
181	0x3d161178	0.036637753
182	0x3d5dd897	0.054161634
183	0xbe5962a3	-0.21229033
184	0x3dd15af9	0.1022243
185	0x3daeb421	0.085304506
186	0x3e21c1ae	0.15796539
187	0xbe6986f0	-0.22805381
188	0x3e117562	0.14204934
189	0x3e505546	0.20345029
190	0x3dd5694f	0.10420477
191	0x3d8e0ef2	0.06936444
192	0x3e23df2d	0.16003104
193	0xbd95d925	-0.07316808
194	0x3e0f7267	0.14008485
195	0xbe2cc2c1	-0.16871168
196	0xbe1251fd	-0.14289089
197	0x3e6170cf	0.2201569
198	0x3d7d0d9c	0.061780557
199	0xbd03d4d9	-0.03218541
200	0xbe6f1786	-0.23348817
201	0x3e187977	0.14890085
202	0xbec0d888	-0.376652
203	0x3daa365d	0.0831115
204	0x3e1a60ed	0.15076037
205	0x3c1e1c75	0.009650339
206	0x3d96cae9	0.07362921
207	0x3d5f2c72	0.054485746
208	0xbe708b9b	-0.23490755
209	0xbf04677a	-0.5172039
210	0x3e3c1e66	0.18370971
211	0xbd733ad7	-0.059382286
212	0xbe4bfced	-0.19920702
213	0x3e58f870	0.21188521
214	0x3db04cbf	0.08608388
215	0xbe3c6e49	-0.18401445
216	0xbe08c7d5	-0.1335748
217	0xbe5b3cfa	-0.2140998
218	0xbde70aa6	-0.11281328
219	0xbe86e5f1	-0.26347306
220	0xbdf645cd	-0.12025032
221	0xbe022c41	-0.12712194
222	0x3d493614	0.04912384
223	0x3d8d9073	0.06912317
224	0x3e183011	0.14862086
225	0xbeafba83	-0.34321985
226	0xbd211013	-0.03932197
227	0x3d3f23c8	0.046664983
228	0x3edaa0cc	0.42700803
229	0x3d7361c1	0.059419397
230	0x3e0171d2	0.12641075
231	0xbd6f7a3a	-0.058466174
232	0xbe1a4bd5	-0.1506799
233	0xbd4d8abd	-0.05018114
234	0xbd671f6a	-0.056426443
235	0x3e044baa	0.12919489
236	0x3e21a04b	0.15783803
237	0xbe1f5c7a	-0.15562621
238	0xbe2db2d4	-0.16962749
239	0x3e328c96	0.17436442
240	0xbca8b4d2	-0.020594034
241	0xbe450d30	-0.19243312
242	0xbe33eba9	-0.17570366
243	0x3cafcfd1	0.0214614
244	0xbe494c30	-0.1965797
245	0x3da84b5d	0.082174994
246	0xbe479e14	-0.19493896
247	0x3e579028	0.21051085
248	0x3e0afcaf	0.13572954
249	0x3d67b5a2	0.056569703
250	0xbd57e5fd	-0.05270957
251	0x3dd6acde	0.104821905
252	0xbdf22704	-0.11823848
253	0xbe7b257f	-0.24526022
254	0xbe38ad3f	-0.18034838
255	0xbe8a83ef	-0.27053782

model.2.bias f4 [3]
0	0xbd58e513	-0.052952837
1	0x3d91a609	0.07111747
2	0xbd6932e1	-0.056933288
