checkpoints/associative/image_encoder.pth (torch, 437529 bytes, 4 tensors)

encoder.0.weight f4 [128, 784]
-0.04707249 0.0131647 -0.04421721 0.0242222 0.016973305 -0.012413726 -0.026742186 0.065506905
-0.033962738 -0.042405177 -0.010856364 0.043960866 0.038908396 -0.07152881 -0.007012229 0.057281516
0.09983344 -0.063145444 -0.051699955 -0.05565752 0.049720056 0.02156383 -0.0037809808 -0.038876843
-0.06273594 0.030663367 0.04336151 -0.006873222 0.07799649 0.07779976 0.03298137 -0.056077756
0.02251451 -0.13912158 -0.025026867 0.010460591 0.012492422 0.10412344 -0.07028442 0.033775207
-0.09467388 0.021759652 -0.009784181 -0.0131434575 0.052260853 0.02843456 -0.038836718 0.019147187
0.010365793 -0.039274525 -0.0015222933 -0.09253868 0.06796661 -0.0042714346 -0.044083264 -0.013828134
-0.04228432 0.048526343 -0.033266548 0.12822045 -0.034931377 -0.07561517 0.055939298 0.036159683
0.06887654 0.023850601 -0.0056947935 -0.07109965 -0.088482164 0.008242356 0.026378911 -0.048166092
-0.056093413 0.052007336 -0.04958176 -0.010342911 -0.057484284 -0.040336456 0.022799036 -0.03394813
-0.016616642 0.048891082 -0.013672915 0.03824511 -0.0304327 -0.0023527474 0.018750414 0.037379097
0.07634708 -0.06841387 0.04225475 0.0462354 -0.03966244 0.062249124 -0.06727818 -0.03176545
-0.030884216 -0.0051386096 0.0030675244 -0.046274245 -0.13917893 -0.01188443 -0.013149849 -0.046950765
0.060240585 -0.055642895 -0.038273804 0.09614657 -0.062362753 -0.03068081 0.042205058 0.0007385833
0.009169231 -0.056163296 0.027233038 0.08987914 -0.0112945605 0.019841138 -0.029596925 0.06096336
0.008017896 0.09719106 -0.020362243 0.010489352 0.0045249257 0.013078009 0.025859876 -0.002510517
0.0057055303 -0.009861493 -0.009499319 -0.07825436 0.041273408 -0.014789994 -0.008309627 -0.06734897
-0.012316428 0.044873253 -0.019120935 -0.024854831 0.08904732 -0.08579501 -0.024163062 0.044686083
0.08066132 0.04474128 0.037277244 0.022486076 0.009587322 0.0044464245 -0.0059382496 0.023404703
0.02041561 0.050848756 0.034244116 0.008293591 0.011308346 -0.0006219016 -0.02585329 0.024105785
0.051243465 0.08522948 -0.076628394 0.09651693 0.0014832449 0.10939258 0.01999316 -0.116247244
-0.031766295 0.01312385 -0.007545417 0.053463835 0.015220595 0.09720097 0.062312968 -0.00026260523
0.042067796 0.084493265 0.058577094 0.07432005 0.042600535 0.036311153 0.038349677 0.04386494
0.021455545 0.0016474186 -0.006975848 0.037386335 -0.034029644 0.003609088 0.043057494 0.0066020624
-0.029117238 0.03477673 0.09717422 0.010020913 0.008300309 0.015411671 0.0270843 0.061399926
-0.012767102 0.015054143 0.008764015 0.056009896 0.056801416 0.026883509 -0.024948152 -0.013907572
-0.021115504 0.055700198 0.04125245 0.0044904924 0.051836535 0.00477721 0.035096344 -0.013479879
-0.01626984 0.015833573 -0.0059839864 0.02208731 0.04896522 -0.046667743 0.12417123 0.10657452
-0.025653925 0.09776507 0.038362402 0.061478563 0.046093006 0.03986735 0.02751917 0.02559994
-0.021603066 -0.026224406 -0.028980361 0.010292988 0.025741324 0.011844424 0.031002995 0.031996407
-0.0377159 0.0064910646 0.0017870358 0.060653716 0.019296264 -0.018984878 0.0065771006 0.009767071
0.026962217 -0.05675637 -0.010663055 -0.0022668345 -0.0023213036 -0.034586277 -0.023471875 0.04425743
00000000: 15cf 40bd c1b0 573c 1b1d 35bd a36d c63c
00000010: 9a0b 8b3c f162 4bbc 6e12 dbbc 7c28 863d
00000020: 831c 0bbd 0db1 2dbd e4de 31bc 4f10 343d
00000030: 695e 1f3d b27d 92bd d7c6 e5bb 06a0 6a3d
00000040: 7975 cc3d 6652 81bd 55c3 53bd 24f9 63bd
00000050: 42a7 4b3d a1a6 b03c 55ca 77bb 533d 1fbd
00000060: b37b 80bd be31 fb3c d79b 313d c438 e1bb
00000070: a0bc 9f3d 7b55 9f3d 7917 073d cab1 65bd
00000080: 5a70 b83c e375 0ebe 2505 cdbc e662 2b3c
00000090: 04ad 4c3c ac3e d53d 47f1 8fbd df57 0a3d
000000a0: 61e4 c1bd 4c41 b23c d44d 20bc a857 57bc
000000b0: 7a0f 563d 98ef e83c 4013 1fbd 90da 9c3c
000000c0: 49d5 293c 53de 20bd b087 c7ba eb84 bdbd
000000d0: 1432 8b3d 64f7 8bbb a790 34bd 668f 62bc
000000e0: 5332 2dbd 8fc3 463d 8142 08bd 394c 033e
000000f0: 3414 0fbd 20dc 9abd 9b20 653d 2d1c 143d
00000100: 250f 8d3d 5662 c33c 649b babb b19c 91bd
00000110: 2336 b5bd f20a 073c 9618 d83c cf49 45bd
00000120: 35c2 65bd a505 553d 3e16 4bbd 5075 29bc
00000130: a474 6bbd d737 25bd 0bc5 ba3c 320d 0bbd
00000140: a01f 88bc 0442 483d 5d04 60bc e8a6 1c3d
00000150: ff4d f9bc 8d30 1abb 789a 993c d31a 193d
00000160: dc5b 9c3d 921c 8cbd 5113 2d3d 5561 3d3d
00000170: 1575 22bd f0f8 7e3d 24c9 89bd 7d1c 02bd
00000180: e500 fdbc c861 a8bb 8508 493b 108a 3dbd
00000190: ec84 0ebe eab6 42bc 7772 57bc 724f 40bd
000001a0: d5be 763d cee9 63bd fec4 1cbd 7ee8 c43d
000001b0: 1670 7fbd 5256 fbbc 36df 2c3d 7c9d 413a
000001c0: 8b3a 163c 7c0b 66bd d217 df3c 8e12 b83d
000001d0: d20c 39bc e289 a23c 4075 f2bc b7b4 793d
000001e0: 7e5d 033c 1b0c c73d b8ce a6bc 88db 2b3c
000001f0: d445 943b 2545 563c 17d8 d33c 7c87 24bb
00000200: 75f5 ba3b 1992 21bc 08a3 1bbc d243 a0bd
00000210: 4e0e 293d bb51 72bc 1a25 08bc 42ee 89bd
00000220: d8ca 49bc 04cd 373d 82a3 9cbc 5c9c cbbc
00000230: 715e b63d 4bb5 afbd 9df1 c5bc c108 373d
00000240: c331 a53d a242 373d 06b0 183d b834 b83c
00000250: 2514 1d3c 50b3 913b a695 c2bb 38bb bf3c
00000260: a33e a73c c946 503d 8f43 0c3d d8e1 073c
00000270: a446 393c 1c07 23ba 47ca d3bc 7f79 c53c
00000280: abe4 513d cb8c ae3d 59ef 9cbd abaa c53d
00000290: 7169 c23a 3809 e03d b2c8 a33c 0913 eebd
000002a0: 601d 02bd 6b05 573c 8c3f f7bb e5fc 5a3d
000002b0: cd5f 793c 4d11 c73d e23b 7f3d 47ae 89b9
000002c0: 484f 2c3d ce0a ad3d 89ee 6f3d 1c35 983d
000002d0: e67d 2e3d 01bb 143d 8d14 1d3d b9ab 333d
000002e0: 8ac3 af3c 32ee d73a a895 e4bb 6a22 193d
000002f0: ab62 0bbd 7386 6c3b 0e5d 303d 1d56 d83b
00000300: 4687 eebc 0b72 0e3d 4703 c73d c12e 243c
00000310: 05fe 073c 3c81 7c3c e5df dd3c 7d7e 7b3d
00000320: 1b2d 51bc a7a5 763c f196 0f3c a26a 653d
00000330: 9aa8 683d ce3a dc3c 1160 ccbc 96dc 63bc
00000340: 6cfa acbc e425 643d 54f8 283d fb24 933b
00000350: 8c52 543d 248a 9c3b 2fc1 0f3d b6da 5cbc
00000360: 5448 85bc 69b5 813c 5115 c4bb 72f0 b43c
00000370: c18f 483d ad26 3fbd 7c4d fe3d be43 da3d
00000380: 2e28 d2bc 0e39 c83d e521 1d3d f2d0 7b3d
00000390: 05cc 3c3d f24b 233d e26f e13c f7b6 d13c
000003a0: eaf8 b0bc 91d4 d6bc 3968 edbc eca3 283c
000003b0: 78df d23c 1d0f 423c fef9 fd3c aa0e 033d
000003c0: fd7b 1abd ffb2 d43b f93a ea3a 0870 783d
000003d0: 3313 9e3c 2d86 9bbc b884 d73b 1106 203c
000003e0: dedf dc3c 5e79 68bd 18b4 2ebc 2c8f 14bb
000003f0: 0321 18bb 57aa 0dbd 1748 c0bc 4747 353d

encoder.0.bias f4 [128]
0.032901596 0.026546437 -0.016292013 -0.044483732 -0.025645679 -0.010913957 0.024346255 -0.05689498
-0.030453235 0.08337646 -0.0053039123 0.0224397 -0.014507405 -0.031405963 0.017741054 0.017439876
-0.045406643 0.023160161 0.01946417 -0.018577298 -0.0123822205 0.003234267 0.02283344 -0.009989648
-0.022280592 0.0117567405 0.10739986 0.039595667 0.017737936 -0.035508793 -0.0154551 0.005237942
-0.0028640681 0.021338332 -0.03875842 -0.0008305309 0.015970802 0.0032893894 -0.029298691 -0.0011116317
0.014087448 0.022469444 -0.035897657 0.0019373852 -0.01953308 -0.032268155 0.059626233 0.008760469
-0.009910141 -0.04436018 0.015900241 -0.0055964096 0.00415258 -0.01845134 0.0070864507 0.0024389634
0.06679312 -0.016653702 -0.02654961 -0.018622823 -0.009054077 -0.011414408 0.0037088196 0.046654336
-0.0032088186 -0.03788792 0.0028685634 -0.007133228 0.008002839 -0.013651214 -0.034725696 -0.014124804
0.058336966 -0.03262618 0.009605511 -0.02300704 0.0406356 0.057055295 -0.025845055 -0.01655561
-0.003023574 0.034122087 0.031610716 -0.0015658913 -0.031432755 -0.038536385 0.014735549 -0.041806858
0.00976881 -0.03415646 -0.028283764 -0.036350794 0.040835604 -0.042772938 -0.052030876 -0.033126645
0.008737043 0.0023420346 0.015382061 -0.022686955 -0.003473772 -0.038651694 -0.03642493 -0.02931137
0.02097191 0.023835406 0.04547144 0.01699397 -0.03158566 0.0001223084 -0.0049488777 -0.028469322
0.022556584 -0.032118354 -0.008655214 0.009625778 -0.037550535 -0.053927936 -0.026993122 -0.027196622
-0.0075387796 -0.025745532 -0.019754183 -0.0113824885 0.06774516 -0.027539445 -0.023946766 0.102767885
00000000: d3c3 063d ea77 d93c d476 85bc 9334 36bd
00000010: e316 d2bc 74d0 32bc cc71 c73c b60a 69bd
00000020: 1079 f9bc 47c1 aa3d 71cc adbb 76d3 b73c
00000030: 78b0 6dbc 8aa3 00bd b055 913c 12de 8e3c
00000040: 51fc 39bd 61ba bd3c 5373 9f3c 6b2f 98bc
00000050: ccde 4abc fff5 533b 320d bb3c 9fab 23bc
00000060: ca85 b6bc 589f 403c 75f4 db3d 112f 223d
00000070: 264f 913c ab71 11bd 6337 7dbc 0ba3 ab3b
00000080: 17b3 3bbb bacd ae3c 26c1 1ebd fcb7 59ba
00000090: 33d5 823c cc92 573b cf03 f0bc 2cb4 91ba
000000a0: 0acf 663c d711 b83c 6c09 13bd dcef fd3a
000000b0: d603 a0bc 9d2b 04bd a33a 743d 1288 0f3c
000000c0: 255e 22bc 05b3 35bd 3941 823c 1662 b7bb
000000d0: 5e12 883b 4427 97bc 7535 e83b 04d7 1f3b
000000e0: d5ca 883d 586d 88bc 917e d9bc e48e 98bc
000000f0: 8d57 14bc 7f03 3bbc ab0f 733b 9e18 3f3d
00000100: 0b4b 52bb 5d30 1bbd 82fe 3b3b dabd e9bb
00000110: 571e 033c 57a9 5fbc 883c 0ebd b96b 67bc
00000120: bef2 6e3d 08a3 05bd 6f60 1d3c 4379 bcbc
00000130: 8471 263d d0b2 693d 02b9 d3bc a19f 87bc
00000140: 2727 46bb 9ac3 0b3d 3d7a 013d 983e cdba
00000150: a2bf 00bd 54d8 1dbd 5f6d 713c ab3d 2bbd
00000160: 5c0d 203c a5e7 0bbd 5ab3 e7bc 92e4 14bd
00000170: 3c43 273d ad32 2fbd 541e 55bd ceaf 07bd
00000180: d025 0f3c d27c 193b 0a05 7c3c fed9 b9bc
00000190: 39a8 63bb 3d51 1ebd 4f32 15bd 661e f0bc
000001a0: 48cd ab3c 7842 c33c 4340 3a3d f036 8b3c
000001b0: f75f 01bd e93f 0039 322a a2bb 7f38 e9bc
000001c0: 96c8 b83c 898e 03bd 99ce 0dbc 70b5 1d3c
000001d0: 97ce 19bd 8ae3 5cbd ae20 ddbc 73cb debc
000001e0: de07 f7bb 4be8 d2bc 86d3 a1bc 9e7d 3abc
000001f0: f9bd 8a3d 679a e1bc 022c c4bc f877 d23d

encoder.2.weight f4 [64, 128]
0.009132894 0.061997753 0.04473509 0.02911444 -0.078401215 0.009142273 -0.023727134 -0.013891135
-0.012726375 -0.06398901 -0.007819485 0.020972408 0.014549686 0.021929441 -0.0046687378 0.03769475
-0.04865555 -0.010178289 0.0016908544 -0.016632032 0.013638121 -0.037950147 -0.018946595 -0.022398924
-0.027709788 -0.047700677 -0.069982946 -0.030912707 0.05903215 0.03196339 -0.054327145 0.025378639
-0.069369234 0.084072106 0.08180781 0.06356541 0.05675183 0.04642206 -0.060585734 0.05576683
0.027961608 0.05640192 0.0473362 0.041746564 0.0741666 0.02159814 -0.02067597 0.035494648
-0.06719051 -0.018845256 0.02248824 0.017702203 -0.07730004 -0.073806025 0.034289263 -0.039110363
0.00547111 -0.08005557 0.0667915 -0.049852375 -0.06722383 0.07754447 -0.057894044 -0.0005013048
0.09317389 0.028408244 0.0056678928 -0.047128886 -0.02985787 -0.013249301 -0.033446714 -0.0383719
0.039798144 0.05793736 -0.021169405 0.016400134 0.07753899 -0.02182726 0.005354781 0.038049925
-0.09750517 0.08288812 -0.016726412 -0.023380911 0.044805016 0.013943078 0.02872199 0.048784684
0.07863864 -0.035393704 0.0021486108 0.024384761 -0.007424662 0.02613323 -0.006134118 -0.061956692
-0.04385338 0.017303413 -0.025691446 0.08275398 -0.035572346 0.04033596 -0.06704908 -0.059192788
-0.025283163 0.0380447 0.04254434 0.056109086 0.044128105 0.07251699 0.014102391 -0.015877346
0.05579715 -0.00030908195 -0.10143375 0.022749973 -0.027422082 0.017283091 -0.015787426 -0.031975728
-0.06495704 0.010498407 -0.046106383 -0.07160143 -0.053980723 0.03444251 0.02239417 0.056660306
0.052232005 0.05888785 -0.027168594 0.097215615 0.008873773 -0.0002360415 0.01641189 -0.04108857
-0.01876654 -0.14800888 0.024997773 -0.064413644 -0.013107128 -0.0106217135 0.019202968 0.041995626
0.025987983 -0.05472299 0.04135005 -0.105547816 0.00016342082 -0.06742944 -0.06686939 -0.030785149
-0.053744115 -0.07824748 -0.10182051 -0.034016736 -0.045604564 0.0189259 -0.036671355 0.05841573
-0.043660663 0.072825655 -0.057696894 0.08263345 -0.04570633 -0.01788916 -0.0417319 -0.024280895
-0.05419197 0.08257778 0.060993493 -0.05460947 -0.051700752 -0.007494646 -0.084263526 0.01914742
-0.013876411 0.059419487 -0.051043827 0.067052916 0.055352744 -0.026867796 0.040359803 -0.027217813
-0.082665466 -0.059225034 0.071789674 0.048993323 0.08489262 0.015058965 -0.10513419 0.05492046
-0.07387443 0.039932877 0.009753752 0.017083757 -0.04863787 -0.026485996 -0.054685805 -0.01154254
-0.1293258 0.09146364 0.014093 -0.00678685 0.0510699 -0.055106293 -0.036064237 0.04971694
-0.009273821 0.07837124 -0.025931178 0.0001459247 -0.027304156 0.031922393 0.06351891 0.039447907
-0.053945906 -0.02714599 -0.050607722 0.056469355 0.032293193 -0.026668454 0.062085852 0.06745714
-0.071036115 -0.0050318236 -0.02645077 0.043970693 0.047816917 0.0052468274 0.06619175 0.06305365
0.06504938 0.086570814 0.037080593 0.06382379 0.061319206 0.001808131 0.020465456 -0.0017979548
0.05392096 -0.008213052 -0.11278112 0.00058232027 -0.039172657 0.034487016 -0.08253585 -0.061447326
-0.0068140184 -0.09292267 0.006744353 0.018958246 -0.09551092 -0.027046444 -0.02973477 0.08061108
00000000: 22a2 153c 5bf1 7d3d 243c 373d 6881 ee3c
00000010: d190 a0bd 79c9 153c 685f c2bc a597 63bc
00000020: 4982 50bc ac0c 83bd 4c1d 00bc 54ce ab3c
00000030: ce61 6e3c 5fa5 b33c 36fc 98bb cf65 1a3d
00000040: 0b4b 47bd d7c2 26bc a99f dd3a e63f 88bc
00000050: 6d72 5f3c 9d71 1bbd e435 9bbc f37d b7bc
00000060: a3ff e2bc c961 43bd 3853 8fbd a53c fdbc
00000070: b2cb 713d 0bec 023d 2486 5ebd dde6 cf3c
00000080: 7511 8ebd ff2d ac3d da8a a73d 952e 823d
00000090: 9b74 683d 0f25 3e3d bf28 78bd c26b 643d
000000a0: be0f e53c b305 673d 9ae3 413d 72fe 2a3d
000000b0: a9e4 973d 95ee b03c a760 a9bc d662 113d
000000c0: 2e9b 89bd 5e61 9abc 4239 b83c 3604 913c
000000d0: 7c4f 9ebd 9d27 97bd e672 0c3d 3032 20bd
000000e0: ff46 b33b 2df4 a3bd fbc9 883d 0132 4cbd
000000f0: a6ac 89bd a3cf 9e3d 4e22 6dbd ff69 03ba
00000100: f4d1 be3d 68b8 e83c bbb9 b93b 380a 41bd
00000110: 7e98 f4bc 9913 59bc 6cff 08bd da2b 1dbd
00000120: 6103 233d ba4f 6d3d 766b adbc 9359 863c
00000130: c3cc 9e3d 15cf b2bc 2977 af3b 3dda 1b3d
00000140: cab0 c7bd 3fc1 a93d d405 89bc 5389 bfbc
00000150: 7785 373d 8271 643c 614a eb3c 73d2 473d
00000160: 4c0d a13d fdf8 10bd b5cf 0c3b 8dc2 c73c
00000170: 944a f3bb 5b15 d63c b600 c9bb 4dc6 7dbd
00000180: 9a9f 33bd e3bf 8d3c de76 d2bc eb7a a93d
00000190: 4fb4 11bd 5237 253d 0751 89bd 2374 72bd
000001a0: a31e cfbc c2d4 1b3d f942 2e3d a4d2 653d
000001b0: acbf 343d ca83 943d b70d 673c 3511 82bc
000001c0: 8d8b 643d 470c a2b9 7fbc cfbd 275e ba3c
000001d0: 46a4 e0bc 4595 8d3c a254 81bc fbf8 02bd
000001e0: 3208 85bd 8301 2c3c 0cda 3cbd c5a3 92bd
000001f0: e41a 5dbd 9713 0d3d fa73 b73c a314 683d
00000200: 3af1 553d 6334 713d ac90 debc fb18 c73d
00000210: 4d63 113c e881 77b9 3a72 863c 7d4c 28bd
00000220: 49bc 99bc a48f 17be 21c8 cc3c 4deb 83bd
00000230: 48bf 56bc b206 2ebc 8b4f 9d3c 9b03 2c3d
00000240: c0e4 d43c 3725 60bd ac5e 293d 7429 d8bd
00000250: f15b 2b39 7218 8abd d2f2 88bd 2331 fcbc
00000260: ca22 5cbd 3740 a0bd 4687 d0bd 2255 0bbd
00000270: dacb 3abd 7d0a 9b3c b434 16bd 5545 6f3d
00000280: 86d5 32bd 9e25 953d 9453 6cbd ba3b a93d
00000290: 9036 3bbd 4a8c 92bc 12ef 2abd bae8 c6bc
000002a0: 66f8 5dbd 8a1e a93d 50d4 793d 2eae 5fbd
000002b0: 2bc4 53bd a695 f5bb 5b92 acbd 0ddb 9c3c
000002c0: e359 63bc d961 733d 5513 51bd 0a53 893d
000002d0: 8fb9 623d da19 dcbc 5250 253d e4f7 debc
000002e0: 834c a9bd f395 72bd 7706 933d 39ad 483d
000002f0: 2fdc ad3d e1b9 763c 9850 d7bd 47f4 603d
00000300: 7a4b 97bd a890 233d 33ce 1f3c 3cf3 8b3c
00000310: 8138 47bd 29f9 d8bc 39fe 5fbd ec1c 3dbc
00000320: fc6d 04be 4a51 bb3d 54e6 663c 3964 debb
00000330: ac2e 513d 23b7 61bd 18b8 13bd fda3 4b3d
00000340: 39f1 17bc 1a81 a03d 9f6d d4bc 5d03 1939
00000350: f7ac dfbc 0ec1 023d 3416 823d 2194 213d
00000360: 62f6 5cbd 4461 debc 0b4a 4fbd 694c 673d
00000370: de45 043d cd77 dabc bc4d 7e3d f826 8a3d
00000380: 627b 91bd ffe1 a4bb 49af d8bc 9d1a 343d
00000390: acdb 433d 94ed ab3b 8a8f 873d 4622 813d
000003a0: 9c38 853d 0a4c b13d d2e1 173d 0cb6 823d
000003b0: d929 7b3d cffe ec3a 2ca7 a73c 5aa9 ebba
000003c0: 39dc 5c3d 0990 06bc caf9 e6bd daa6 183a
000003d0: 8273 20bd 4242 0d3d 8e08 a9bd 31b0 7bbd
000003e0: 2148 dfbb 3e4e bebd bcff dc3b 534e 9b3c
000003f0: 3b9b c3bd 8190 ddbc 5596 f3bc 6c17 a53d

encoder.2.bias f4 [64]
0.0038416553 -0.06331391 0.009277984 -0.041556027 0.022864187 0.37723207 0.09853214 0.07573711
-0.07412628 -0.09589144 -0.12026568 -0.12961197 -0.19471586 0.1394866 0.04477273 -0.24613713
-0.10188591 -0.35328892 -0.074684404 -0.20418233 0.2517492 -0.17379159 -0.13101353 0.011727985
-0.02249942 -0.08899088 -0.10044046 0.06620455 0.29656953 0.0014776207 0.010493065 0.1421257
-0.022164108 -0.06199337 -0.028723445 0.08767963 0.16837697 0.04333534 0.22887178 -0.21484901
-0.0240489 -0.053109385 -0.11268529 0.046213165 -0.3320791 0.21594995 -0.08311416 -0.02640389
0.033193268 0.12222969 0.004461816 0.32088888 -0.09755261 -0.08338393 0.122375 0.13699815
0.13535622 -0.2985411 -0.12752636 0.05049469 -0.065174386 0.1696145 0.00059567665 -0.1467489
00000000: 48c4 7b3b b9aa 81bd af02 183c a736 2abd
00000010: ad4d bb3c 9024 c13e 38cb c93d 0f1c 9b3d
00000020: 85cf 97bd bb62 c4bd da4d f6bd 00b9 04be
00000030: 9863 47be 93d5 0e3e 9c63 373d 5f0b 7cbe
00000040: 8fa9 d0bd 49e2 b4be 23f4 98bd 2c15 51be
00000050: 45e5 803e 6cf6 31be 6928 06be bc26 403c
00000060: b450 b8bc da40 b6bd bab3 cdbd 4096 873d
00000070: f6d7 973e b9ac c13a 1beb 2b3c 6689 113e
00000080: 8191 b5bc c3ec 7dbd 6e4d ebbc 6191 b33d
00000090: 036b 2c3e 6680 313d 5d5d 6a3e 6101 5cbe
000000a0: 3302 c5bc 3a89 59bd 8cc7 e6bd 044a 3d3d
000000b0: 4606 aabe fc21 5d3e c237 aabd f94c d8bc
000000c0: aaf5 073d 8f53 fa3d 6d34 923b 8c4b a43e
000000d0: aac9 c7bd 32c5 aabd be9f fa3d 3e49 0c3e
000000e0: d29a 0a3e 61da 98be 4596 02be 85d3 4e3d
000000f0: 267a 85bd 6caf 2d3e 2f27 1c3a 5845 16be
