checkpoints/associative/text_encoder.pth (torch, 6860 bytes, 1 tensors)

embedding.weight f4 [20, 64]
-1.2398244 0.83698744 0.9419691 -1.5812157 -0.29334638 -0.7570508 0.6596745 -0.8861152
-0.48871395 0.25941446 1.0450767 -0.53804594 0.09526617 -0.6847677 0.520166 -0.810278
0.9154852 0.041467622 1.5201197 -0.13777344 1.3069543 -1.007527 0.7496563 0.74332625
0.9095771 0.13984518 -0.6342261 -0.35936806 -0.9074568 -0.874673 -0.57506275 -0.061202914
0.5243306 -1.5389463 1.0945343 0.20262858 1.2275002 -1.0757781 -1.5878654 1.8306745
0.36823314 0.10538941 0.16157676 1.7028034 -0.29691437 -1.541769 0.5441695 -0.484195
-0.31606418 -0.27634144 -0.35119003 0.98376983 0.1410333 -0.99477214 -0.7072881 0.73761094
-0.30289045 -0.8933165 -1.6124212 -0.054244436 1.0815108 1.260915 0.05989745 0.15930995
-0.6523639 -2.534766 1.098816 0.19228867 -0.8630682 -2.026747 -0.43512243 0.9004867
-0.38094795 -1.0192037 -0.21672972 0.029531809 0.57031 0.32473606 -0.16465385 -1.2121077
-0.41429046 -0.5293263 -0.4398113 0.3520394 -0.109039344 -0.016798686 0.092106886 2.0576303
-1.7704414 0.2692513 -1.0994639 0.3145892 0.8687132 -0.23835056 -0.19793873 -0.19846544
-0.046263725 0.010933672 -0.12704636 0.0527802 0.0038731727 1.8780086 -0.29534307 -0.7941975
-1.8563914 0.100750536 0.6370939 -1.6048995 -0.19357748 -0.72220033 0.71044534 -0.881162
-0.9722086 -1.5076447 1.5392607 0.025291719 3.191815 0.706793 1.3245207 0.22087678
-1.8139408 0.24689645 0.85014135 1.0414629 0.38438886 -0.193035 0.6669614 -0.9381108
0.7286447 2.0898104 0.9603742 0.570205 0.9792291 -0.082466625 -0.95825964 -0.57120234
0.91041356 0.68280655 -0.22694221 -0.72801983 0.47952014 -1.0163376 0.45763892 -0.44439247
0.41799235 0.063062906 -0.7086633 0.2695831 1.2689185 0.2911909 -0.7240848 -1.1031371
-1.5015949 -2.364596 -0.47499472 -1.3817003 -0.8773577 -0.36666173 0.36090037 0.17377353
0.9638202 -1.2404773 0.3016349 -1.1022338 0.59735125 -1.6226017 -0.22855078 -1.2298816
-0.6498044 -0.8644535 -1.9243249 -0.3749481 1.7156403 -0.95989496 1.8375788 2.0743115
-0.4818278 0.4075282 0.03529986 1.6850237 -0.41672015 -0.79207665 -1.4048818 0.7251825
-0.70009446 -0.84954077 -0.5076948 0.9340182 0.34792593 1.1921357 0.33789626 2.5639184
0.6436489 0.5680604 -1.2683755 -0.39386436 -0.19728403 1.029546 0.8408057 -0.23509066
-0.969063 0.04114572 -0.2626573 -0.16279258 -0.9949341 -0.09835226 -0.3749552 -0.5853608
-0.124096125 -1.9034168 0.18369605 -0.1481759 2.0850532 -0.5631242 -0.28591686 0.80016875
0.8631671 0.32550886 -0.043896906 -0.04265933 0.7764044 -1.5253956 0.46534225 -0.6144414
-0.04477951 -0.38198468 -1.7696146 -0.874169 -0.11826693 0.17882648 1.9348079 -1.2184366
1.1913053 0.85574883 0.029769687 -0.04065668 -1.2266406 0.2157396 -0.6664009 0.026823197
0.78930974 0.033118173 -0.46711066 1.363352 0.22159965 0.029160732 0.21091908 -0.18654956
0.59898335 -1.6692983 -0.8390744 -0.4408145 -0.7361591 0.8915294 -0.27256867 -0.034496598
00000000: 91b2 9ebf cf44 563f e324 713f 4765 cabf
00000010: 7f31 96be 15ce 41bf 6ee0 283f 72d8 62bf
00000020: b738 fabe f9d1 843e 13c5 853f 61bd 09bf
00000030: e91a c33d f04c 2fbf 9929 053f 616e 4fbf
00000040: 3d5d 6a3f f4d9 293d 4893 c23f 7b14 0dbe
00000050: 474a a73f a5f6 80bf 7ae9 3f3f a14a 3e3f
00000060: 0bda 683f 9333 0f3e a45c 22bf 17ff b7be
00000070: 174f 68bf 92ea 5fbf 5037 13bf e8af 7abd
00000080: 883a 063f 31fc c4bf b319 8c3f de7d 4f3e
00000090: ba1e 9d3f 19b3 89bf 2c3f cbbf 8b53 ea3f
000000a0: 0e89 bc3e 67d6 d73d 6174 253e 76f5 d93f
000000b0: 2905 98be b058 c5bf b14e 0b3f 68e8 f7be
000000c0: 2ad3 a1be a07c 8dbe 2ecf b3be 57d8 7b3f
000000d0: 096b 103e 63a9 7ebf d510 35bf 12d4 3c3f
000000e0: 7514 9bbe 64b0 64bf d163 cebf 6a2f 5ebd
000000f0: f26e 8a3f aa65 a13f 0757 753d 2622 233e
00000100: 5201 27bf 9b39 22c0 01a6 8c3f 52e7 443e
00000110: 0af2 5cbf 39b6 01c0 5ec8 debe 4c86 663f
00000120: 9c0b c3be 4475 82bf 65ee 5dbe b1ec f13c
00000130: d6ff 113f ce43 a63e 059b 28be 5826 9bbf
00000140: e11d d4be ee81 07bf f22e e1be 823e b43e
00000150: 0550 dfbd 669d 89bc 89a2 bc3d 37b0 0340
00000160: d39d e2bf 4edb 893e 3cbb 8cbf d611 a13e
00000170: fd63 5e3f 2b12 74be 73b0 4abe 863a 4bbe
00000180: 087f 3dbd 2523 333c 7118 02be 0d30 583d
00000190: 0ed5 7d3b 9662 f03f 3537 97be 8750 4bbf
000001a0: 3c9e edbf 4c56 ce3d 9618 233f 596d cdbf
000001b0: 2d39 46be 1fe2 38bf bfdf 353f d593 61bf
000001c0: aae2 78bf 80fa c0bf 7f06 c53f 9430 cf3c
000001d0: b246 4c40 63f0 343f e589 a93f 862d 623e
000001e0: 362f e8bf 6cd2 7c3e dda2 593f a84e 853f
000001f0: 9ece c43e f8aa 45be fbbd 2a3f 0828 70bf
00000200: 7688 3a3f 74bf 0540 15db 753f f4f8 113f
00000210: c2ae 7a3f 43e4 a8bd 8150 75bf 513a 12bf
00000220: dd10 693f 69cc 2e3f 8a63 68be 825f 3abf
00000230: aa83 f53e 5a17 82bf a64f ea3e 6987 e3be
00000240: 1803 d63e 2027 813d f56a 35bf cc06 8a3e
00000250: ec6b a23f f916 953e 9f5d 39bf 9933 8dbf
00000260: 4334 c0bf 8a55 17c0 8232 f3be 8edb b0bf
00000270: 849a 60bf 16bb bbbe efc7 b83e b0f1 313e
00000280: ecbc 763f f6c7 9ebf e46f 9a3e ff15 8dbf
00000290: 03ec 183f 6ab1 cfbf 3709 6abe c36c 9dbf
000002a0: 9559 26bf d34c 5dbf 4750 f6bf 33f9 bfbe
000002b0: 1a9a db3f adbb 75bf c835 eb3f 85c1 0440
000002c0: 22b2 f6be 89a7 d03e 9696 103d dbae d73f
000002d0: 585c d5be 89c5 4abf 2bd3 b3bf 8fa5 393f
000002e0: 6439 33bf 817b 59bf 49f8 01bf d11b 6f3f
000002f0: 5923 b23e e797 983f bd00 ad3e 3d17 2440
00000300: 2dc6 243f 686c 113f 215a a2bf 97a8 c9be
00000310: d304 4abe 2ac8 833f 0b3f 573f 9bbb 70be
00000320: 8314 78bf 6a88 283d 057b 86be 19b3 26be
00000330: 00b4 7ebf e96c c9bd 21fa bfbe 35da 15bf
00000340: 1c26 febd 29a3 f3bf d11a 3c3e 6cbb 17be
00000350: 8371 0540 e828 10bf b263 92be dcd7 4c3f
00000360: 85f8 5c3f 19a9 a63e 3ecd 33bd 8dbb 2ebd
00000370: 70c2 463f 2a40 c3bf 5741 ee3e 084c 1dbf
00000380: b86a 37bd 7f93 c3be bb82 e2bf 8ac9 5fbf
00000390: ef35 f2bd 4a1e 373e c9a7 f73f bbf5 9bbf
000003a0: b17c 983f 5b12 5b3f 8fdf f33c 9e87 26bd
000003b0: 8f02 9dbf d7ea 5c3e 4099 2abf 52bc db3c
000003c0: 3410 4a3f eca6 073d 2129 efbe 5182 ae3f
000003d0: 05eb 623e 7de2 ee3c 2cfb 573e d906 3fbe
000003e0: f956 193f 91ab d5bf 94cd 56bf 70b2 e1be
000003f0: ec74 3cbf 453b 643f 1f8e 8bbe 4e4c 0dbd
