outputs/random/image_encoder.pth (torch, 437529 bytes, 4 tensors)

encoder.0.weight f4 [128, 784]
00000000: 8ae8 12bd bdf3 88bc 633f 0f3d c78f d13a
00000010: 7b15 ab3b 1f53 e63c 8f55 b2bc 7420 403c
00000020: f80a a43c bb6c a13c 008b 053d 899b d03c
00000030: e525 a4bc 540e 47bc 8b0e ed3a 5257 1cbd
00000040: e708 5f3c 43ef 463b 1527 033c 3e58 96bc
00000050: 436b 43bb 2dca 653b 6ad7 56bc d656 c1bb
00000060: e7fd d93c 9529 0c3c 9375 0f3a 7f15 c73c
00000070: 4424 4c3b df03 bd3a dae7 f73c f7d2 02bd
00000080: e767 c93c 996d e63c a191 d73b 036b 8abc
00000090: 5d03 e7bc c553 c6bc 6486 983c f91e 263c
000000a0: d806 253c bce5 7b3c 116e d43c 6cb8 bdbc
000000b0: cd73 1f3b 18a7 05bd a475 283d f453 993c
000000c0: a436 75bc 03fa 283c c32d b2bc bf11 8abc
000000d0: 40ef b13b f1b6 d63c 0901 4cbc 06ae 2e3d
000000e0: 3704 0a3d 6b49 263d 200a 3db8 1a96 aabc
000000f0: 254d 9dbc fba0 0a3d a617 64bc fc18 1d3d
00000100: 959f df3b bb19 f33c c106 c23c 8685 52bc
00000110: 54b0 06bc 5e95 88bc 8376 6c3c c1b8 c4bb
00000120: c5bb 11bd 8f63 26bc 9982 c4bc 5fff 82bc
00000130: c6ae 8abc 4df5 b6bc 54a0 3c3c 7d88 f3bc
00000140: b576 b5bc 3fee 073c 3468 e3bc a363 993c
00000150: a9cb 39bb f404 ea3c 6d4d 50bc e45b c7bb
00000160: aa8d fcbc b09a 573c 1e0e e7bc 0e50 4f3c
00000170: de62 1ebd c423 1bbd 3364 fdbc 4c57 8f3c
00000180: a777 44bc 6227 9e3c 74bc 023d 20eb 83bb
00000190: 906c f33c 61f0 bebc 04b5 d2bc 13a7 8abc
000001a0: f311 e4bb 163e 743c 5ca2 68bc 902c 8c3b
000001b0: 84fa 97bb 6bfe 5e3c 8f22 76bb 982f 143d
000001c0: e989 08bc a2ec 383d 2091 48bb f6c5 d73c
000001d0: f57f a7bb 3a2c 673c ac51 aebb 055a 243c
000001e0: 160a 4e3a 3f85 ad3c 50a4 c2bc 6230 ab3c
000001f0: 3e40 9ebc 562d d53c 0586 2abd 6e28 acbc
00000200: 8c36 cabc aa07 463c 0493 99b9 f24e 8d3c
00000210: 053b a0bc f167 913c d435 763c 9712 4abb
00000220: 19dc f0bc 99b2 2cbc 83dd 20bd 67d4 efbb
00000230: 4b59 b33c e127 06bd a2c9 ddbc 3948 4cbb
00000240: 5d6d 28bd f069 cd3c 0f50 90bb 357c 13bd
00000250: 0f3e 67bc 55f3 443c 55cc cf3c 3a75 003c
00000260: cd29 e03c 4487 3b3c f917 1fbd 6170 0e3c
00000270: b67f 06bd e7cf b8bc 8bc0 963c 0a76 13bd
00000280: 7f7d a4bc 26dc 933c c55e 863c d7fb b43c
00000290: 3f97 a1bc 5322 21bd 10f2 dbbc ea61 9bbb
000002a0: afce b1bc 15c3 f7ba 27bc 1bbd 1d22 043b
000002b0: 5ba7 95bc d843 043c 0473 7a3c e886 e13c
000002c0: c105 073d 999e 1abd a978 78bb 824d 01bd
000002d0: 208b a93c c2b7 763c f31f c7bb dfd0 823c
000002e0: c799 e5ba 7a6e b0bc d8fe d63c 793a 8dbb
000002f0: b33f 5abc 940c 103c 03e8 953c 0adf db3c
00000300: 26af 03bd 316c bdbb 3571 d93a a26a d3bc
00000310: 1a3b 0f3d fd9a 0dbc e3e9 1abc 190e 133c
00000320: aea9 a03c 3068 ff3c d714 c5bb c352 a23b
00000330: 0b21 16bd ae54 d8bc ea72 35bd 24ad 07bc
00000340: d552 23bd 5250 cf3c 4697 bebc fd80 0bbc
00000350: 6541 893c 68a6 af3c 0b45 4bbc 6782 01bd
00000360: 0dce 553c 892a 923b 078f f4ba 477d 8c3b
00000370: e716 81bc 4dbd 33bc 25c9 86bc a596 093d
00000380: 8a4d 02bc 6c99 49bc ffb9 6cbb 5d6f f4bc
00000390: e0ff a93b 71d0 22bc 47c7 ac3b b613 a2bc
000003a0: be8e 873c b56c 03bd 61d1 cbbc 0a1f 2ebd
000003b0: 4103 c1bb 587d 3d3c faea f5bc 977e ccbc
000003c0: 266e 52bc edf7 30bd 3b0a 1cbd 8d10 0dbd
000003d0: 8d77 ed3a 242f 82bc 259b 37bc 7953 04bd
000003e0: 3b4d bf3c b19c 593c 8277 1fbd 9eba c33b
000003f0: 9f1c 593c b10d 2d3c 29cb b4bc ab3a c8bc
-0.035866298 -0.016717786 0.03497256 0.0015988284 0.0052210665 0.028115807 -0.021769313 0.011726487
0.020024762 0.019705167 0.032603264 0.02546479 -0.0200376 -0.012149412 0.0018085999 -0.038169213
0.013612962 0.0030355013 0.008004923 -0.018352624 -0.0029818572 0.0035063133 -0.013112882 -0.005900244
0.026610328 0.008554836 0.0005472537 0.024302242 0.0031149546 0.0014420709 0.030261923 -0.031939473
0.024585677 0.028128432 0.0065786396 -0.01689673 -0.028199846 -0.024209866 0.01861877 0.01013922
0.010072432 0.015374597 0.02593139 -0.023159228 0.0024330497 -0.032630056 0.041127816 0.01871679
-0.014966641 0.010313514 -0.021750337 -0.016854165 0.005430132 0.02621028 -0.012451419 0.04264643
0.033695426 0.04059736 -4.507054e-05 -0.020823527 -0.019201824 0.03384493 -0.013921654 0.038353905
0.0068244436 0.029675355 0.023684861 -0.012849217 -0.008220751 -0.016672786 0.014432552 -0.0060034697
-0.03557946 -0.010155573 -0.023988055 -0.015990911 -0.016929042 -0.022333765 0.011512835 -0.029728169
-0.02215133 0.008296548 -0.027759649 0.018724268 -0.002835015 0.028566815 -0.012713772 -0.0060839523
-0.03082927 0.013159439 -0.028204974 0.012653364 -0.038668506 -0.037875906 -0.030931568 0.017497681
-0.011991418 0.019305889 0.031918004 -0.004025832 0.029714853 -0.023307981 -0.02572108 -0.01692537
-0.0069601475 0.014907381 -0.014198866 0.004277773 -0.004638018 0.013610463 -0.003755722 0.0361782
-0.008333662 0.045147546 -0.003060408 0.026339512 -0.005111689 0.0141096655 -0.0053197946 0.010031228
0.0007859779 0.0211817 -0.02375999 0.020897094 -0.019317742 0.026022594 -0.041631717 -0.021015372
-0.024684213 0.012086788 -0.0002929197 0.017249558 -0.019559393 0.017749758 0.015027482 -0.0030833834
-0.029401826 -0.010540628 -0.03927375 -0.0073190215 0.021893164 -0.032752875 -0.027073685 -0.0031170978
-0.041119922 0.025074929 -0.004404075 -0.036007125 -0.014113917 0.0120209055 0.025365988 0.007840449
0.027363682 0.011445824 -0.03884122 0.008693785 -0.03283664 -0.022560073 0.018402359 -0.036001243
-0.020079372 0.01804931 0.016402612 0.022092743 -0.01972544 -0.039339375 -0.026848823 -0.004741897
-0.021705 -0.0018902743 -0.038021233 0.0020161935 -0.018268278 0.008072816 0.015286211 0.027530149
0.03296447 -0.037748907 -0.0037913716 -0.031568058 0.020696223 0.01505846 -0.0060768067 0.015968738
-0.0017517143 -0.021537054 0.026244566 -0.004309949 -0.013320851 0.008792061 0.018299108 0.026839752
-0.032149456 -0.0057807197 0.0016589524 -0.025807682 0.034968473 -0.008642909 -0.009455177 0.008975529
0.01961216 0.03117761 -0.006014447 0.0049537136 -0.036652606 -0.026407566 -0.044299044 -0.008281026
-0.039873917 0.025306854 -0.023265492 -0.00851464 0.016754815 0.021441653 -0.012406598 -0.031618502
0.013049615 0.004460637 -0.0018658348 0.004287395 -0.015757991 -0.010970426 -0.016453335 0.03359093
-0.007953057 -0.012304645 -0.0036121604 -0.029838258 0.0051879734 -0.009937392 0.005272779 -0.01978479
0.016547557 -0.032086093 -0.024880113 -0.04251007 -0.0058902805 0.011565529 -0.030019272 -0.024962706
-0.012843644 -0.04320519 -0.038095694 -0.034439612 0.0018117294 -0.015891619 -0.011206423 -0.03230617
0.023352256 0.013281987 -0.03893233 0.0059731742 0.013251453 0.010562346 -0.02206953 -0.024442038

encoder.0.bias f4 [128]
00000000: 6a65 eebc 46b1 263e 3662 1f3d 11e8 d5bc
00000010: 9aa1 b23d ff83 043e 12a3 ba3d 5bab b13c
00000020: 4af7 943c 79fb a9bc 6925 0dbd c7d9 033d
00000030: 31b7 0cbd 88e4 f3bc b654 f03b bd41 293c
00000040: af36 dfbb a4a7 00bd 8a63 aabb b706 d2bc
00000050: a10a ff3b 8cb8 36bc 51ab 77bc ca4c b7bc
00000060: 44bd 223c f344 4f3d df64 d63d 2e6d 1a3e
00000070: 5677 e3bc 40d1 8c3c 02b0 a93d c748 273c
00000080: bae8 863d 2d67 3b3d 6417 bf39 bad9 783c
00000090: a7b3 9a3d 9ecb 06bd 0750 f2bb 7ff1 e53d
000000a0: b36c 92bc ec6e ed3d e474 4c3d fcd7 ad3d
000000b0: 2ec7 e23d 1faa 05bc ba6e 5f3d ba6a e7bc
000000c0: d028 f03d dd0b 1d3e ad4c 063e b05f 9d3b
000000d0: b981 d83c 94f0 8e3d 6ef4 19bd aac9 933d
000000e0: d268 d73d 6fd0 e13c ff41 26bd 7e17 283c
000000f0: 69b1 073e 5d8d 6d3a 2ba8 31bd 6f91 e23d
00000100: f78c 963c 6b9c 903c c20d d3bc c615 cd3c
00000110: 1031 013e 63b1 8f3d 66db 0abb 8789 ab3d
00000120: b6ac d93d ab13 d73d d026 b03d 9212 db3c
00000130: 5ee1 f43d 351e e73d c356 013c 2f4a 033e
00000140: 09e8 d83d 2647 09bc 32d9 edbc 1b39 433d
00000150: e92e 523d 5f9a f93d 478f 163e 310f ddbc
00000160: b604 933c d2d9 693d 7bca 823b 6b13 02bd
00000170: 004d 213c 68e6 993c c135 273d afaf 503c
00000180: a3d2 f2bc 2a61 e43b 783d 043e f946 a83d
00000190: 899b 853d 6762 f63d bab1 abba b768 c1bc
000001a0: b83b 9abc dd35 cc3d b11e da3d 8967 013e
000001b0: 5f6c 003e 80cf 0b3e cfcb 2cbc e198 6ebb
000001c0: adff 0b3e 110c 6d3d bb72 14bd 8358 edbc
000001d0: 7eba d03c 8e52 013c 5400 e53d fc14 0c3e
000001e0: 3024 113e 6869 1c3e 45b3 e03d 1ce4 ff3d
000001f0: d70b a63d 7520 d63c 7ec6 a43d f38e 03bd
-0.029101092 0.16278562 0.03891202 -0.026111634 0.08722229 0.12940978 0.091131344 0.021688154
0.018184323 -0.020749794 -0.034459505 0.03219011 -0.034354392 -0.029772058 0.007334317 0.010330615
-0.0068119387 -0.031409875 -0.0051998543 -0.025637968 0.0077832495 -0.011152398 -0.015116529 -0.022375483
0.00993282 0.050602864 0.104684584 0.15080711 -0.027766865 0.017189622 0.08285524 0.010210223
0.06587358 0.045752693 0.00036447786 0.015188629 0.07553797 -0.03290903 -0.007394794 0.11227702
-0.017874097 0.11593422 0.049916163 0.084884614 0.11073147 -0.008158236 0.054548956 -0.028249133
0.11726534 0.15336557 0.13115187 0.0048026666 0.026429044 0.069794804 -0.037586622 0.07216199
0.1051804 0.02756521 -0.040590283 0.010259507 0.1325127 0.0009061897 -0.043373268 0.110628955
0.018377764 0.01765271 -0.025763396 0.025034796 0.12616372 0.07016256 -0.00211879 0.08375841
0.10628645 0.10501798 0.08601153 0.026742253 0.11957048 0.112850584 0.007894221 0.12821268
0.10591132 -0.0083787795 -0.02903423 0.047661882 0.05131427 0.12187647 0.14703093 -0.026984783
0.017946582 0.057092495 0.0039914227 -0.0317568 0.009845018 0.018786624 0.040822748 0.012737199
-0.029641455 0.0069695907 0.12914073 0.08216662 0.065238066 0.120304875 -0.0013099231 -0.023609502
-0.018827304 0.09971211 0.10650385 0.12637152 0.1254134 0.13653374 -0.010546639 -0.003640704
0.13671751 0.057872836 -0.036242228 -0.02897287 0.025479551 0.007893218 0.11181703 0.1367988
0.1417396 0.15274584 0.10971693 0.1249468 0.08107727 0.026138524 0.08045672 -0.03211875

encoder.2.weight f4 [64, 128]
00000000: 87c9 b7bd 54a5 91bd 9c01 a0bd 08bd b1bb
00000010: 999a 04bd a023 dfbd 98b2 19bd a0ec 223d
00000020: 5b74 163d f257 7fbd 6a11 6f3d 8c28 fbbc
00000030: 9788 8bbd 3549 bebc 3745 7dbd ca85 18bd
00000040: bc2f 2c3c f948 543d 5148 56bd 2ab1 413d
00000050: bba9 503b df64 00bc 4cd4 48bc c541 d5bc
00000060: 2b0d 54bd f4e0 163d 5dfb a0bd 2c50 043d
00000070: 868b 83bc 37b4 9c3c dd6b 28bd 42c0 8c3c
00000080: 9007 503d fbe9 cdbc eb85 993d f11d 07bd
00000090: 35e3 9b3d e1e9 89bc 7e51 743d eb82 6ebd
000000a0: 2ef0 5ebd 219f 23bd 24a5 11bc 62a6 513d
000000b0: 8583 2b3d a8e0 bebd f049 923d 67e6 b03c
000000c0: 1d78 dbbd 2aa3 8c3c e59b 063d db01 70bd
000000d0: 9586 98bd 7b6b 37bd 16c2 e73b 7d6b 27bc
000000e0: cb8f 28bd 0295 593d f924 813d 56ba c3bd
000000f0: dd59 93bd b09c 973c 4859 643d d774 913d
00000100: 361e 733d 34c8 a9bc 6cb6 07bc 068d c6bd
00000110: d670 423d da07 8cbd 01f8 52bb 07d5 7cbc
00000120: acc3 873d 92dd eebb cb00 85bd 9b7d 84bd
00000130: 4f0a 183c 9636 75bd 6b70 143d 9edd 94bd
00000140: 121c 83bd b520 153d 7094 3c3d 79fa 853d
00000150: 8ad8 65bd 0942 80bd a789 14bc d499 423d
00000160: 2c6a 813d 867a 693d 4a36 983d aac8 c0bd
00000170: 3fd1 42bd 2b35 783d 10e0 2bbd 1fd1 b0bd
00000180: 9ab5 6d3d fa27 65bb bea0 a6bd 786d 10bd
00000190: 8fc3 913b 3dbe 3dbd 13e1 bd3c 8017 a23d
000001a0: 3340 e73c 1d1f 0b3d 2878 38bd 7dc7 a9bc
000001b0: 2ebe b2bd 1f43 8cbd c6ee 933d fb4a 783d
000001c0: c5f4 66bd ca46 c8bc 2413 eebc c512 0b3c
000001d0: e670 60bd fb31 84bc fe8a 01bd ac4b bdbc
000001e0: 4f86 a4bd cb98 c2bd 0f2b 41bd 7ebd a1bc
000001f0: 3539 43bd 8497 813d 9b29 32bd d022 57bc
00000200: b5c1 a83d 4c7e 8e3d 5d26 903d 6575 3cbd
00000210: 635a 35bc a021 e93d b824 19bd 4ebc 193d
00000220: 89b7 8fbd 5100 30bc 96cc 80bc 8cf8 1a3d
00000230: 3a77 b03d 3cc0 833d dd15 80bc 0bb2 1abd
00000240: ccc7 febc a7e6 e03c de08 75bd 5015 b73d
00000250: c464 683c f8d7 bd3a 38b9 643c 6ef2 93bd
00000260: 054a 20bd c341 783d 38dd a33d 5e29 a43d
00000270: e0ef c83d 0386 8d3d 517b b8bc b3e2 25bd
00000280: 7e48 543d b110 933d ccba 72bd c0ed c2bc
00000290: 503a 8ebd 33dc 62bd 92e2 1d3d f374 323d
000002a0: 34db 33bd 0093 38bd 325d 1f3c 085b e1bc
000002b0: f811 45bd 1e07 03bd 0461 7a3d 9df6 3cbd
000002c0: 46dd 013e 9235 b83d 4f3e c03b 9a96 94bc
000002d0: 6a57 903b e25a 463c 7a4d 21bd af77 863d
000002e0: 57bd 19bc 2750 e7bc 175f 9abd 118c 88bd
000002f0: 8fde c83d e120 e2bc 1d7f 01bd da97 5abd
00000300: 29e1 303d 02dd 3abd a95b ae3d e407 9abc
00000310: 8211 3bbd 6add 9c3d eeae 79bd eeef 84bd
00000320: 1044 c43c c6fb 0bbc 0b4c b83c dee9 b33c
00000330: b066 2c3c a8c5 49ba 5cb7 b23d faaf ba3d
00000340: 1710 313d 4d30 143c ce30 64ba 2cd6 a13c
00000350: f35e 7b3c dc9e 6bbc e5bb ab3d 7a99 1bbd
00000360: 3f3c 34bd 7916 14bb e938 7abc 9934 d53b
00000370: cc67 e8b8 c7e8 b93d 6aaa 073c fb0f 253c
00000380: ae5e 3cbd b3f2 a93d 0a05 fc3d c995 5bbd
00000390: f0e7 1f3d 7bf4 163d 503d 9a3c e1ae 0fbd
000003a0: 2443 5b3d 971f b13d d37e 34bc fbf0 543d
000003b0: 5ba6 b43d 47c8 613d d26c 39bd 7f17 95bd
000003c0: b35d 733d 13ff 2fbd 7151 f53c 3093 6ebd
000003d0: ab43 093d 1a0a 6539 a3c5 573c faa5 adbc
000003e0: adbe 803c f3a8 ec3d 91f8 913d ed97 aa3c
000003f0: 3151 6a3c 02c2 263d 3665 ce3d 821c 03bc
-0.08973985 -0.07111612 -0.07812807 -0.0054241456 -0.032374 -0.10895467 -0.037523836 0.039776444
0.03673206 -0.06233973 0.058366217 -0.030658983 -0.06813162 -0.023228267 -0.061833587 -0.037236966
0.010509428 0.051827405 -0.05231506 0.047288097 0.0031839448 -0.00783655 -0.012257647 -0.026032338
-0.05177037 0.036835626 -0.07860444 0.03230302 -0.01605774 0.019128902 -0.04111849 0.01718152
0.050788462 -0.025135985 0.07496246 -0.03298754 0.07611696 -0.016835155 0.05964803 -0.05823032
-0.054428272 -0.03994668 -0.00888947 0.051184066 0.041873474 -0.093201935 0.07143009 0.02159424
-0.10716269 0.017167646 0.032863516 -0.05859552 -0.074475445 -0.044780236 0.0070726974 -0.010218498
-0.041152757 0.05312062 0.0630588 -0.09557025 -0.071948744 0.018507332 0.055749208 0.071023636
0.059354983 -0.020725347 -0.008283239 -0.09694867 0.04747089 -0.06837435 -0.003219128 -0.015431649
0.06629118 -0.007289597 -0.06494292 -0.0646927 0.0092798015 -0.05986651 0.036240023 -0.072688326
-0.06401838 0.036408145 0.04604 0.065419145 -0.05611471 -0.06262595 -0.009066022 0.047509983
0.06319079 0.057001613 0.0743223 -0.09413274 -0.047562834 0.06059758 -0.04196173 -0.08633637
0.058034517 -0.0034966455 -0.08136128 -0.035260648 0.004448361 -0.046324003 0.023178613 0.079146385
0.028228855 0.03396522 -0.045036465 -0.020725006 -0.0872768 -0.0684874 0.07223277 0.060618382
-0.056385774 -0.024447817 -0.029061861 0.008488362 -0.05479517 -0.016137114 -0.031626694 -0.023107372
-0.0803343 -0.09501799 -0.047160204 -0.019743677 -0.04766198 0.063277274 -0.04349671 -0.013130859
0.08240072 0.06957683 0.07038567 -0.046010394 -0.011068913 0.113833666 -0.037388533 0.037533097
-0.070174284 -0.010742263 -0.015722554 0.03783469 0.08616491 0.0643315 -0.015635425 -0.03776745
-0.03110113 0.027453734 -0.05982291 0.08939612 0.014184181 0.0014483919 0.013960175 -0.07223974
-0.03913309 0.06060959 0.080011785 0.08015703 0.098113775 0.06910326 -0.02251974 -0.0404994
0.051826946 0.07180918 -0.059260175 -0.023795009 -0.06944716 -0.05538578 0.038546152 0.043568563
-0.04391022 -0.045062065 0.009726809 -0.027509227 -0.04811284 -0.03198921 0.061127678 -0.046133626
0.12682065 0.08994593 0.0058668028 -0.018138219 0.004404952 0.012106629 -0.039380528 0.065657966
-0.009383521 -0.028236462 -0.07537668 -0.066673405 0.09808075 -0.027603569 -0.031615365 -0.053367473
0.04318348 -0.045620926 0.085135765 -0.01880259 -0.045670994 0.07659419 -0.06095784 -0.064910755
0.023958236 -0.008543914 0.022497198 0.021962103 0.0105225295 -0.00076969946 0.08726379 0.09115596
0.043228235 0.009044719 -0.0008704782 0.019755445 0.015342462 -0.014381137 0.083854474 -0.037988164
-0.044002768 -0.0022596403 -0.0152723575 0.0065065143 -0.00011081956 0.09077602 0.008280376 0.010074611
-0.04598873 0.08298244 0.123056486 -0.053609643 0.039039552 0.03685425 0.018828064 -0.035078887
0.053530827 0.086486034 -0.011016565 0.05198763 0.08820792 0.05512264 -0.045269795 -0.07279872
0.05941553 -0.042967867 0.02994606 -0.058245838 0.0335118 0.00021842905 0.013169679 -0.021197308
0.015715921 0.11555662 0.071274884 0.020824397 0.014301584 0.040712364 0.10077898 -0.008002402

encoder.2.bias f4 [64]
00000000: 713a 92bd 929c 0bbc c0de 723d 7a7c 07bc
00000010: 17db a53d 63a1 8dbd d432 a6bd 92da 243d
00000020: 8981 e83d 0615 d43d 8b96 0c3d 6aa5 f6bd
00000030: 7923 a7bc d32d 04bd ea42 53bc 17cb 19be
00000040: 8b89 a03d 4b94 b5bc 7ffb 9bbd e9ac 603b
00000050: 5d78 2e3c afc4 2ebe 578d db3d d4ae e63c
00000060: bd86 dfbd bb0f a93a 5b78 dabd 37dc b93c
00000070: 1ba9 513d 6751 db3d ddea bb3d a733 bbbd
00000080: 2363 853d 4cb1 f4bd 321b fc3d 77d2 e5bd
00000090: df54 5cbd 2704 ee3d ca77 f43c e3f6 5cbd
000000a0: 4c81 3f3d 94f6 f13d 062e e9bd 885a 443e
000000b0: ad5f 29bd 9248 8fbc 653e 06bc 7ca5 60be
000000c0: 447a 9a3d 3955 103e e0e9 af3d 72a9 01bd
000000d0: 6df8 a2bd c8b7 7c3d 4958 203c f215 46bb
000000e0: 3a13 bb3d 2d52 d63c de92 11be d6c0 f9bd
000000f0: 965c ae3d b0a6 873d b779 763d a168 a63c
-0.07140053 -0.008521216 0.059294462 -0.008269424 0.08098429 -0.06915548 -0.081151634 0.040247507
0.11352832 0.103555724 0.034323256 -0.12043269 -0.020402657 -0.032270264 -0.0128943715 -0.15018879
0.07838734 -0.022165438 -0.076163284 0.003428275 0.010648814 -0.17067216 0.10720318 0.028159536
-0.10914371 0.0012898365 -0.10667487 0.022688014 0.051186662 0.10708886 0.09175656 -0.09140711
0.065130495 -0.11947879 0.123098746 -0.112217836 -0.053791877 0.11621886 0.029842276 -0.053946387
0.046754166 0.11814609 -0.113857314 0.1917516 -0.04135101 -0.017490659 -0.008193587 -0.21938127
0.075428516 0.1409501 0.0858953 -0.031655736 -0.0795754 0.061698705 0.009786674 -0.0030225483
0.091345266 0.026162231 -0.14216182 -0.12194984 0.08513753 0.0662359 0.06017467 0.020313563
