outputs/random/text_encoder.pth (torch, 6860 bytes, 1 tensors)

embedding.weight f4 [20, 64]
00000000: f8dd c73f d582 483f adb0 c3bf 85bf 0abf
00000010: 3967 7abf 535e a53f 994b 453f 0a31 153e
00000020: a730 4abf 9eca 253f aadb 613f 436a ebbe
00000030: a279 79be 10e3 d63f 1b3d 603f 5839 0540
00000040: b00c 6ebf f261 7fbf 7cc0 8fbf 868b 073e
00000050: 80e1 80bf 7a00 f0be 2b4e acbf 762d 02be
00000060: 6e0a ca3f 0db5 9ebf 85d8 bc3f 2bdf 06bf
00000070: 01cc b9be bc8d afbf bf06 75be c16b 6e3e
00000080: ad3c 7cbf b831 a1bf e1a2 a53d 4b55 cabd
00000090: 7703 973d 5180 5ebe c046 9cbf 5d41 97be
000000a0: 6f65 52be 2c6c ddbe d5fa 18be 4582 edbd
000000b0: 226b af3d 1fbc ef3e 5aef 9ebe 37fd 013f
000000c0: 2436 b3bf 1808 6bbe a439 293f 2efe c3bb
000000d0: e97a 37be 9ab0 8b3f 15e6 8f3f 874e 1ec0
000000e0: af76 06bf b4f9 273f d2c5 65bf b329 02bd
000000f0: 3f9b 9a3f 1751 92be 68c6 0bbf 6f22 943f
00000100: a39d 0cbf cc4f f2be aac5 0fbe 2d75 b2be
00000110: ee36 8fbd f55f 63bf ab5d 08bf 7122 abbe
00000120: 8e42 f7be 1180 c3bf 0539 de3d a44f 89be
00000130: 0de6 c03f 8183 a2bf 8bad be3e 84c8 583f
00000140: 7381 fcbe d3ea 2dbf 4707 d0bd 350c f83e
00000150: be9f 2ebf 17ec c2be 9083 bb3f 7013 563f
00000160: bb38 f2bf 7414 3dbe 3863 153d ac01 cabe
00000170: ead6 f3be b6a3 c43e 8bb2 07bf 7d86 1cbf
00000180: 3e20 a03f 4a7e e0bf 658f b33e eaa9 493f
00000190: 7b54 b83f ee50 6ebf 3019 313f 219d f5bf
000001a0: f42d dd3d fe8b 39be acec 53bf efe7 ce3f
000001b0: 1006 3a3e 6151 20bd 2239 953f 890b ce3f
000001c0: f643 00bf a7c0 2a3f fce3 473f 0ec2 dabe
000001d0: 4f23 0f3f 8840 8ebf 600b 873e e96f 14bf
000001e0: 904f 38bf 0203 6fbf a22e 783f 2ab0 2dbe
000001f0: 0a95 633f 06cd b4bf 3368 033e 859b 713e
00000200: b748 03bf 69cb a03f ce45 d93f a0b1 f03e
00000210: e644 fabe 0230 06be dd92 49bf e63f b83c
00000220: 0009 bdbe aafa 5f3f b17f ba3d eb8d 36be
00000230: 6e3a 6fbe 6390 853e 4619 823e f2a2 b1be
00000240: 5a94 0940 ae5e 05bd 168a dfbe 249f a5be
00000250: 478f 5f3d e2ae 3bbf 8291 213f fe20 003e
00000260: 31a1 ecbe 2d70 9fbd 3afe 44bf 3b09 fb3e
00000270: ad7a 5cbe de18 5c3e de16 873f 0401 f8bf
00000280: 5485 813e f229 8ebf 5455 a43f c996 82be
00000290: bc89 9fbe 546e aa3f 0df0 cd3e 8995 3ebe
000002a0: 8591 0b3e 98e9 263f 11de f7bf bf58 7b3f
000002b0: 92b5 a4bb 2143 513e a969 a73e 80d9 19bf
000002c0: 6ede 5d3f f38b b23f b160 983f c11f 92be
000002d0: 2c74 14bf 1717 863f 6f27 533f 4eba 96bf
000002e0: 65e6 863e ba5b 97bf 0336 2fbf 2c52 64bf
000002f0: 00ae 293f d1e5 fa3e 17ba 163f 1600 143f
00000300: 9069 9abf f580 093f ee7d 87bf 3972 1640
00000310: 4282 403f e43e 683f 8c36 793e fe64 63bf
00000320: 2f49 813f 2b2d adbf 9a38 c8bf 7ffc 53bf
00000330: d766 193f 2f0c 2ebf 6511 a13f 3a66 3e3f
00000340: 8426 35bf 9f68 293f 7f9c 5b3f ba40 863f
00000350: 7ab0 fbbe 10a7 99bf 9ef0 8d3e 9c3e 90bf
00000360: 7fe2 873e 6e36 0ebf 57e1 1140 c7ae 5ebf
00000370: 40cb 4f3f 43bb 973f 7a33 4b3f 4c88 a23e
00000380: 1789 403e fb05 e4be edb2 acbd dcf2 633f
00000390: adf8 40bd 95ae 963d 528d e2bf 30d5 c5bf
000003a0: c942 fdbf eb12 c3bf d2a0 08bf cfd5 3f40
000003b0: b5f0 4cbf 8d44 173f 31ef 26bf 7358 a13d
000003c0: ae1b c13d 8522 77bf a071 843e 5f80 d53e
000003d0: c262 b8bf 63db 61bf fb9c 843d 3be5 d13f
000003e0: 9408 f73e 64d2 c03a df99 68bd cc56 b73e
000003f0: 38b4 b63d c101 b0bf d4e6 8f3f c59a 4e3e
1.5614614 0.78324634 -1.5288292 -0.54198486 -0.97813755 1.291941 0.7706848 0.14569488
-0.7898049 0.64762294 0.88225806 -0.4597951 -0.24362805 1.6788044 0.8759324 2.081625
-0.9298811 -0.9975883 -1.1230617 0.13236818 -1.0068817 -0.46875364 -1.3461355 -0.12712654
1.5784433 -1.2399002 1.4753577 -0.5268428 -0.36288455 -1.3715129 -0.23928355 0.23283292
-0.98530084 -1.2593298 0.08087707 -0.098795496 0.07373708 -0.21728636 -1.2209091 -0.29542056
-0.20546506 -0.4324659 -0.14939435 -0.115971126 0.08565356 0.46823213 -0.31041986 0.50777
-1.4000897 -0.22952306 0.6610358 -0.0059812283 -0.1791798 1.091327 1.124209 -2.473543
-0.52524847 0.6561539 -0.89754975 -0.03177805 1.2078627 -0.28577492 -0.5459962 1.1573008
-0.54928035 -0.47326505 -0.14040247 -0.34855023 -0.06992899 -0.88818294 -0.53267926 -0.33424714
-0.48292965 -1.5273458 0.10850719 -0.26818573 1.5070206 -1.2696382 0.37241778 0.8468096
-0.49317512 -0.6793644 -0.10157638 0.48446813 -0.682125 -0.38070747 1.4649525 0.8362341
-1.8923563 -0.18464833 0.036471575 -0.394544 -0.47624904 0.38406152 -0.5300681 -0.6114271
1.250984 -1.753854 0.3507034 0.78774893 1.4400781 -0.9309224 0.6917906 -1.9188577
0.107997805 -0.18119809 -0.8278301 1.616453 0.18166375 -0.03914011 1.165806 1.609727
-0.501037 0.66700214 0.7808225 -0.42726177 0.5591325 -1.1113443 0.26375866 -0.5798326
-0.719964 -0.93363965 0.96946156 -0.16961733 0.8889929 -1.4125068 0.12832718 0.23594482
-0.5128283 1.2562076 1.6974428 0.47010517 -0.4888069 -0.13104251 -0.7873972 0.022491407
-0.3692093 0.8749186 0.091063865 -0.17827575 -0.23362133 0.2608672 0.25409907 -0.3469463
2.1496797 -0.032560997 -0.4366004 -0.32347977 0.05458 -0.73313725 0.6311265 0.12512586
-0.4621673 -0.07785068 -0.7695042 0.4903048 -0.21531172 0.21493861 1.0553854 -1.937531
0.25297034 -1.1106551 1.283854 -0.25505665 -0.3115977 1.331492 0.40222207 -0.1861173
0.1362973 0.65200186 -1.9364644 0.9818229 -0.0050265277 0.20435764 0.326978 -0.60097504
0.86667526 1.3948959 1.1904508 -0.2853985 -0.57989764 1.0475796 0.82482046 -1.1775606
0.26347652 -1.1824868 -0.6844179 -0.89187884 0.6628113 0.4900346 0.588777 0.5781263
-1.2063465 0.537124 -1.0585306 2.3507216 0.7519876 0.90720963 0.24337214 -0.88825977
1.0100459 -1.3529409 -1.5642273 -0.82807153 0.59922546 -0.6798734 1.2583433 0.74374735
-0.70761895 0.66175264 0.8578567 1.0488503 -0.49158078 -1.2004108 0.2772264 -1.1269107
0.2653999 -0.55551803 2.2793787 -0.8698544 0.8116951 1.1854023 0.7937542 0.3174461
0.18802296 -0.44535813 -0.08432565 0.8904245 -0.047112156 0.07357518 -1.7699378 -1.5455685
-1.9786006 -1.5240148 -0.5337039 2.9974248 -0.8005479 0.59088975 -0.6520873 0.078781985
0.094291076 -0.9653705 0.2586794 0.41699502 -1.4405138 -0.8822538 0.06475254 1.639808
0.48248732 0.0014711139 -0.056787368 0.35808408 0.08921093 -1.3750535 1.1242318 0.20176227
