outputs/associative/image_encoder.pth (torch, 437529 bytes, 4 tensors)

encoder.0.weight f4 [128, 784]
00000000: e655 9cbc fb92 e6bc 8502 3d3b 952f d6bc
00000010: b78f 2dbc a515 0a3b 3760 dabc 1f88 7ebc
00000020: c8e6 043c 0242 52bc a78f 413c 4558 f3bc
00000030: 541f fbbb b1f4 33bc 71d7 fe3b 3200 163d
00000040: 7543 913c 6937 7abb 845a ccbb 2883 e0bc
00000050: 0194 2e3c 509b 12bc b41f 393c f3a0 4d3c
00000060: 89f1 79bc 8d6c c43c c010 793c 0ae5 b33c
00000070: e055 95bc 4365 c8bc c856 d3bc 706c 873c
00000080: fbb7 29bc 73e3 253d b887 02bd c1e1 46bc
00000090: 3bcb 8e3c 42e9 7f3c f538 c13a 2c56 163d
000000a0: a98f f1ba b504 013d 66aa 14bc f663 293d
000000b0: a078 353d a94d 063d 1de7 173c 182d 053d
000000c0: 5006 0a3d 441a 06bc 1c7e 8fbc 674a 46bc
000000d0: 4810 fdbb f5b3 bebc 0fc2 f7bb 58f2 cabc
000000e0: 6e82 72bc 4165 41bd 2515 7bbc f255 bebc
000000f0: 9e5c c4ba f118 c0bc fa4e 7ebb 8d57 0b3c
00000100: 6673 97bb cbec 7abc a2a3 2e3b 64a1 813c
00000110: df55 983c a8a2 7b3c 3f01 253c bec6 a23c
00000120: 59c5 6b3c 9d5f 11bd b4c9 0b3d 88ad 88bc
00000130: 329a 19bd 3195 97bc d87c bdbc 1769 ca3c
00000140: 7717 c6bb 2c7d 56bd 6c82 313d e6a6 bc3b
00000150: 891a 99bc 48eb b1bc d7be 253d 6f91 d6bb
00000160: 4c51 ebbc b386 77ba 1f65 ce3c 8f93 d6bb
00000170: 9074 38bd 98d9 47bd 183b e23c 882c 263d
00000180: f8cb 483d 3002 b1bc ce39 263b 6bd3 16bc
00000190: 579d 0c3d 4967 5abb 7234 c1bc a451 efbc
000001a0: 158a 193d ddd4 263d 9161 79bc 5097 d9bc
000001b0: 821c c2bc 01ed a839 869d 6ebc d402 14bd
000001c0: 3d23 133d 0e56 30bc 066b 0dbd e072 9a3c
000001d0: aecf bdbc 7f68 7e3c 507e b03c f603 f7bc
000001e0: ee39 023c 2886 f63c 8796 d03c 2fec 03bc
000001f0: ce10 37bc c3bb 143d 4474 15bc 038c d13a
00000200: 839c 71bc 7b82 18bd 8797 893c 3c26 cb3a
00000210: 4f65 ff3c 7186 073c 8d4e bf3c 2109 003c
00000220: a1e9 47bb 8a49 d63c d9c9 b83c db31 a03c
00000230: 9652 f73c 4837 0fbc f966 a539 6ae2 6f3c
00000240: a20a 53bd d291 ad3c c243 383c e593 ebbc
00000250: a33f 88bc d1d3 9e3c ed73 823b 5097 05bd
00000260: 9e53 eebb cd70 cabc 86f8 45bb e3b6 033c
00000270: d7f6 363c 38b0 08bd 7f46 01bd 010e 02bb
00000280: a471 86bc 8ba2 9c3b 0030 e7bc 1339 2e3c
00000290: a0d3 853c 8567 4a3c 068b 803c f700 03bd
000002a0: 493c ccbb c0ec c13b 1c9a b13c 44ae e4bc
000002b0: 90fa 893c 4c87 cabc e80f b23c dfd8 0cba
000002c0: dbe3 c33c 974c 9a39 534a ab3b 40e2 723c
000002d0: e97b fd3b 94e7 fabc 4dc3 82bc 1aa7 b1bb
000002e0: 0336 05bd 9dc6 8b3c 818d d9bc f01c 803b
000002f0: 30b5 b7bc ad43 21bd 98f6 283c c7ef 17bd
00000300: e0d7 283c 6917 c1ba eaa0 813c 7359 843c
00000310: fbda 9bbc 8224 053d c2a0 dfbc e429 33bc
00000320: d293 26bb 2e0b 24bc e7b4 2abb cab2 17bd
00000330: b431 23bd 0f82 2e3c 7b7f 1ebd 0865 8dbc
00000340: 4ee7 1f3c f92d babc 24c7 1a3c ffe9 22bd
00000350: c9c1 50bc 4432 39bc 7926 923b 6cdf 7c3b
00000360: 64b8 683c be20 49bc b3d5 8cbb 5c3c d7bc
00000370: 7cc5 e6bb ad4b 3f3c df9e 86bc a46d f63c
00000380: eca1 083d 9b31 aebc b33a 23bd 3e7b 8e3c
00000390: 6a51 b0bc d366 2f3d 795e 4cbc e983 28bd
000003a0: 695b 70bb 4e0c 13bd 4148 c0bb 9d2a 923b
000003b0: d719 b53b 17ed 94bb 84a2 10bb 79a1 a8b9
000003c0: d32b 183c ddaa e2bc d2fa 9ebb 19c5 77bc
000003d0: 3f84 8bbb 4db0 2ebd 1511 cebc d767 0ebd
000003e0: ba25 89bb a2cb 343c a764 ec3c 36d2 ed3a
000003f0: 3688 783c 2531 ff3c 57aa b8bc 920c ab3c
-0.019083928 -0.028146258 0.0028840613 -0.026145736 -0.010593346 0.002107003 -0.026657207 -0.0155353835
0.008111663 -0.01283312 0.011814035 -0.029705176 -0.0076636467 -0.010983632 0.0077771475 0.03662128
0.017732361 -0.003818 -0.0062363762 -0.02740629 0.010655404 -0.008948162 0.0112990625 0.01255058
-0.01525534 0.023977542 0.015201747 0.0219598 -0.018229425 -0.024462348 -0.025798216 0.0165312
-0.010358806 0.040500116 -0.031867713 -0.012138785 0.017430892 0.015619578 0.0014741706 0.036703274
-0.0018429655 0.03149863 -0.009073829 0.041355096 0.04430449 0.032788906 0.00927141 0.032513708
0.033697426 -0.008184973 -0.017516188 -0.0121027 -0.007722888 -0.02327917 -0.0075609754 -0.024773762
-0.014801605 -0.047215704 -0.0153248655 -0.023234341 -0.0014981215 -0.023449393 -0.0038804398 0.00850476
-0.004621911 -0.015315245 0.0026647826 0.015824027 0.018595634 0.0153586045 0.010071098 0.019870158
0.014390313 -0.035491575 0.034127906 -0.016684309 -0.037500568 -0.018503757 -0.02313082 0.024708314
-0.0060452777 -0.052365467 0.04333727 0.0057572005 -0.01868941 -0.021718636 0.040465202 -0.0065480988
-0.028725289 -0.0009442374 0.025194703 -0.006548352 -0.045033038 -0.048791498 0.027616069 0.040569812
0.049022645 -0.021607488 0.0025364044 -0.009205679 0.03432974 -0.0033325723 -0.023584578 -0.029213734
0.0374852 0.040730346 -0.015221016 -0.02656141 -0.023695234 0.0003222004 -0.014563924 -0.03613551
0.035922278 -0.010762705 -0.034525894 0.018853605 -0.023170318 0.0155278435 0.021544605 -0.030153256
0.007948382 0.030093268 0.025462402 -0.008051916 -0.01117344 0.036311876 -0.009121958 0.0015987161
-0.014746788 -0.03723381 0.016795887 0.0015499066 0.031176237 0.008271799 0.023352886 0.0078146765
-0.0030504244 0.026158113 0.022557186 0.019555023 0.030190747 -0.008741207 0.00031547973 0.014641384
-0.051523812 0.021187697 0.0112466235 -0.028757045 -0.016631907 0.019388111 0.0039811046 -0.032615006
-0.0072731515 -0.02471199 -0.0030207946 0.008039209 0.01116725 -0.03337118 -0.03156137 -0.0019844773
-0.01641161 0.004780119 -0.02822113 0.010633725 0.016336262 0.012353783 0.015691292 -0.031983342
-0.0062327725 0.0059181154 0.02167993 -0.027915128 0.01684311 -0.024722718 0.0217361 -0.00053728925
0.02391236 0.00029430233 0.005227366 0.01482445 0.0077357185 -0.030628003 -0.015962267 -0.0054215314
-0.032522213 0.01706248 -0.026556732 0.0039096996 -0.022425264 -0.03937118 0.010312699 -0.037093904
0.010305375 -0.0014731708 0.0158238 0.016155934 -0.019025316 0.03250552 -0.027298335 -0.0109352805
-0.0025417698 -0.010012431 -0.0026047768 -0.03703574 -0.039842322 0.010651126 -0.038695794 -0.01726009
0.009759737 -0.022727 0.009446893 -0.039773937 -0.0127415145 -0.011303488 0.0044601527 0.0038585318
0.014204118 -0.012275873 -0.004297936 -0.026273899 -0.007042585 0.011675757 -0.016433178 0.030081578
0.033357546 -0.021263888 -0.0398509 0.01739275 -0.021523196 0.04282267 -0.012473696 -0.041141424
-0.0036675578 -0.035900407 -0.0058679883 0.0044606463 0.005526762 -0.004544865 -0.0022069523 -0.00032163764
0.009287792 -0.027669365 -0.0048516775 -0.015122675 -0.0042577083 -0.042648602 -0.02515463 -0.034767
-0.0041854056 0.011034878 0.028856589 0.0018144313 0.015169194 0.031151364 -0.022542162 0.020880017

encoder.0.bias f4 [128]
00000000: 6435 cebc bc93 153d 45ee 1f3d 2a1e ba3c
00000010: 4156 123c c709 cd3c 2c2a 353d 6ba4 213d
00000020: eb50 393d 1cf7 80bc 073b b23b 693f 1fbd
00000030: 5e90 913c c3fe 5b3c 2148 903d 9e27 51bc
00000040: 5c36 31bd c3fe ac3b 8a66 55bc 8736 243c
00000050: 514e b33d 5fba ff3c 2845 6e3d 6a25 a43d
00000060: 4ae5 6c3d c9b9 02bc aac5 233d e201 0d3c
00000070: 409a 22bd 3af9 d2bc aed6 4a3d 56c2 513d
00000080: 34a2 123c db67 9a3c 5f35 11bd 287b a6bc
00000090: b0f3 4e3d 294d 25bc a263 2d3d 2617 ddbc
000000a0: ed68 1dbd af00 ee3c 2f1d 06bc dbbb aa3d
000000b0: 7f51 be3c d0cb b23d c40e da3b 086d 8b3c
000000c0: 861b e33c de96 f2bb 729d b3bc f812 a13d
000000d0: 0c48 e83b 782c 11bd f965 0a3d 838e ebbc
000000e0: 0c3d 44bc 7725 89bc 6183 c23c cef1 3ebc
000000f0: 4782 12bd b754 c03d 0518 3f3c be8d 3b3c
00000100: 3930 06bd 971f 773d a454 7f3c ecaa 08bd
00000110: 2121 73bc d5bc 29bc 7b5d cfbc 63a9 2ebd
00000120: cae3 04ba 8e18 e43c 6167 d93d aa16 9a3b
00000130: dadf 143d 1d70 9f3d 6405 76bb d581 053b
00000140: adaf 09bd ae3c c7bc f8dd a23c 5f8c aa3c
00000150: a1af 7e3d 02b6 71ba 5703 16bd f0f3 bdbb
00000160: cdca 253d a985 1bbc b496 70bc 9641 eabc
00000170: 321e 5a3d 14df d43b 2fda 6cbb 06bf 6b3c
00000180: c3b0 2b3d 650f 453c 9aa0 adbc 8e5e 663d
00000190: 55a5 94bb 67e9 c83b c853 503d 0602 22bd
000001a0: c56e d53c c6f9 e2bc 818e 083c b1ea cc3b
000001b0: 569a 8f3d 0dd7 0dbd f055 cc3d d1b4 663b
000001c0: c47a 5f3d 3ba9 e63c 6752 c53b 05df 0d3c
000001d0: 9379 953c 4f78 2abd 245b bf3b 11d8 0ebc
000001e0: ca38 073d cfca 3a3c 394f 7a3c 6210 b13c
000001f0: 11f1 a83c 4aad fbbc faca 753d 6506 503d
-0.025171943 0.036517844 0.03904559 0.022719461 0.008931697 0.025029076 0.04422967 0.03946344
0.045243185 -0.015742831 0.0054391655 -0.038878832 0.017769035 0.013427439 0.070450075 -0.012765793
-0.04326473 0.0052793934 -0.0130249355 0.010022766 0.08755172 0.031216798 0.05817142 0.08014949
0.057835855 -0.007978865 0.03998343 0.008606406 -0.039697886 -0.025753606 0.04952114 0.051210724
0.008949805 0.01884835 -0.03545129 -0.020322397 0.050525367 -0.010089197 0.042331345 -0.026988577
-0.038430143 0.02905306 -0.008185669 0.08336612 0.02323222 0.087302804 0.006654592 0.017019764
0.027723085 -0.0074032387 -0.021925662 0.07864946 0.007088667 -0.0354428 0.033788655 -0.028754478
-0.011977445 -0.016741497 0.023744287 -0.01165433 -0.035768773 0.09391158 0.011663442 0.011447368
-0.032760832 0.06033286 0.015584145 -0.03336613 -0.0148394415 -0.0103599625 -0.02531313 -0.04264201
-0.00050693436 0.02784374 0.10615421 0.004702409 0.036346294 0.07785056 -0.0037539834 0.0020371575
-0.033614803 -0.024320927 0.019881234 0.020818887 0.06217921 -0.00092205417 -0.03662428 -0.005796902
0.04047661 -0.009492316 -0.014684368 -0.028595727 0.053251453 0.0064963195 -0.003614079 0.014388805
0.04191662 0.012027596 -0.021194745 0.056242518 -0.0045363107 0.0061313394 0.05086115 -0.03955271
0.026053796 -0.027706992 0.008334757 0.0062535633 0.07011859 -0.034628917 0.09977329 0.003520299
0.054560438 0.028156867 0.006021786 0.008659129 0.018246448 -0.04161864 0.005839722 -0.008718506
0.033013143 0.011400892 0.015277677 0.021614257 0.020622762 -0.03072228 0.060008027 0.05078735

encoder.2.weight f4 [64, 128]
00000000: 5f4c a0bd 30b3 19bd c7de 323d 2cf5 c7bc
00000010: 545e c9bc d079 18bd 5cd1 75bd 8966 863d
00000020: 7fbb 00bc 964e 063d dde5 e1bc 94b4 9dbd
00000030: b206 1fbd 820a a0bd cf0f 963d 3684 6f3a
00000040: 9c72 003c 73a7 ec3b 1a97 a9bc 9fd2 233d
00000050: 53ad 71bd 0939 913d 3128 a53d ec6c b3bc
00000060: 352a 1f3d 80cf 853c 56f4 183d 18ed 133d
00000070: 7dd1 5e3b 9e90 cc3c d11b a1bd e7fa 703d
00000080: 3d46 4d3d 46b8 1ebd 44e9 5a3d 0275 4c3d
00000090: dfc7 1c3d 9ab2 2d3d 8baf 0abd bfb0 1dbd
000000a0: 932c 363d 8879 ad3c efdd 25bd 8b17 2e3c
000000b0: d52d 1f3d cb63 6abd d8ce 173c 4b65 0bbd
000000c0: ad7e c13d 4e62 5d3d d685 8ebd 13db 823c
000000d0: a038 4cbd 9aec 96bd f411 25bd 26a0 d53c
000000e0: e6aa a6bd b45e 55bc 46ae 823d fb42 1dbd
000000f0: 69ce a4bd 17a3 67bc 5cef 74bc 27b8 523d
00000100: 06ca 4abd b36c d738 91a4 a9bd 8710 523d
00000110: 1720 a33d 5a9f b2b8 e7b9 14bd 131b 93bc
00000120: 8579 813c 5e17 48bd eb8d eb3c 4e6b 373d
00000130: 33d9 453d a830 1d3d 228c 793c 9269 7fbd
00000140: 9994 2b3d 990d a0bd aac8 a83c 07f9 a2bc
00000150: 5f55 68bd fd5d 793d cad9 47bd 998a 47bd
00000160: a1d8 aebd 924d 6dbd 84ec 0f3d 37d5 693d
00000170: 267f b53b 723f 1dbd 7681 0cbd 27c5 433d
00000180: cd14 4fbd 4817 743d 836b 043d 8099 3e3d
00000190: ba78 a53c 1b8a 383d 719f c6bc 91da 55bd
000001a0: 38c9 fdbb 2a13 a53d f17f 02bd 82ff a1bc
000001b0: e7c7 513b bd93 ae3d 25c9 ce3c 9e12 82bd
000001c0: dbcd 15bd 9709 773d 2ac1 2abd 827d 68bd
000001d0: 2a11 803d d420 52bd 3e6f d43c 8bb0 67bc
000001e0: 23cb b4bd 9237 393d 3dd4 853c e5c5 e53b
000001f0: 0bf3 bf3d de4f 98bd 57b3 96bd 7884 9e3d
00000200: 0889 ee3c 8c1c 25bd a387 3b3c 8d63 95bd
00000210: 9165 053c 2018 bcbc 4149 a6bc 295e 8a3d
00000220: 7f7d 63bd ea6c 0dbd b316 293d cb16 e3bc
00000230: 529b 9dbd cc88 9fba 6618 89bc ff22 88bd
00000240: f8c8 6a3d 55da 883c 01f4 f23c 771f 2bbd
00000250: 538f 6a3d 06cd 1cbd 86d1 01bd 1b2a 29bd
00000260: 7ef5 e6bb f4bc b6bd 7555 e2bd 6050 a7bd
00000270: 2122 303d d914 07bd da40 54bd e526 94bd
00000280: de54 adbd 0f87 25bd 84c9 0e3a c32b aebd
00000290: 5dfe df3c c0a2 8bbd 019b 9bbd bd75 22bd
000002a0: 0b8f 673d 043b 92bd 0ad5 c5bd 43d2 f7bb
000002b0: b828 3fbd 7719 77bd a74a 77bd 1f02 f6bb
000002c0: 6db1 063c cf19 e53c 053a 90bd 80da bcbd
000002d0: fc53 4aba fc2e b0bb a68b 96bd d6ec 203d
000002e0: 84a7 7b3d 07a6 22bd 502f 05bd 708b 8b3d
000002f0: 5a36 273d 51ea 963c 306d 343d 6de7 2e3d
00000300: ade4 38bd 1c1a 1439 6441 7f3b 9a30 1b3d
00000310: 6a83 8f3c a728 a6bc 4087 c2bd b4fb 3a3d
00000320: 4b48 e63c d7a2 7d3c b749 78bd 8e17 d13c
00000330: 0552 10bd b30a 6a3d 77eb 12bd bcf1 32bd
00000340: 8a71 d8bb 7dcf 503a 3779 cbbc c854 afbc
00000350: 61bc 103c f947 97bd 1cfb e93c 3843 873d
00000360: 01a2 a43c a5ee 8cbd d72b acbb 4e95 2f3d
00000370: 9ed6 37bc e851 8f3d 0c6e 7d3c 385e c2bd
00000380: 05fe 453c 7eb4 b3bd 360f be3b 090d b4bc
00000390: d768 03bd 5b14 9b3d e3a9 583d f01d 3abd
000003a0: cc9f 8d3d 1722 2b3d 94ee 903d 9371 aabd
000003b0: f992 a2bc 1aa5 9dbd 1130 f33b e4c9 94bd
000003c0: 3cc0 283c 8d47 443b e65f 033d 5459 96bd
000003d0: c0c7 70bd afa7 bdbd 16a3 30bd 90dd db3c
000003e0: 53f3 b0bd dbb5 1a3c af59 46bd f647 4fbd
000003f0: 4545 46bd 7679 97bc a272 81bd 5fa4 5bbc
-0.07827067 -0.037524402 0.04366949 -0.0244089 -0.024581112 -0.037225544 -0.060014114 0.06562526
-0.007857203 0.03278979 -0.027575428 -0.07700458 -0.038824745 -0.07814504 0.07327234 0.00091368274
0.007839825 0.00722211 -0.020701934 0.039995786 -0.059003185 0.07090957 0.080643065 -0.021902524
0.03885861 0.016334295 0.037342392 0.036114782 0.0033999376 0.024971303 -0.07866634 0.05883303
0.050115813 -0.038749956 0.053445116 0.049916275 0.03827655 0.042406656 -0.033858817 -0.038498636
0.044476103 0.021176115 -0.040494855 0.01062573 0.03886207 -0.057224076 0.009265624 -0.034032147
0.094479896 0.05404883 -0.06959121 0.015973603 -0.04985869 -0.07369347 -0.040300325 0.026077341
-0.08138065 -0.013023067 0.06380896 -0.038393956 -0.08047182 -0.014138005 -0.014949646 0.051445153
-0.04950907 0.00010272246 -0.08283342 0.051285293 0.07965105 -8.517383e-05 -0.036310103 -0.017957246
0.015805015 -0.04885041 0.028754195 0.044780068 0.04830284 0.03837648 0.015231164 -0.06235654
0.04188976 -0.078150935 0.020603497 -0.019894136 -0.05672204 0.06088065 -0.048791684 -0.04871616
-0.085374124 -0.057935305 0.03513767 0.057088103 0.005538839 -0.038390584 -0.03430315 0.04779544
-0.050556947 0.059592515 0.032329094 0.046533108 0.020199168 0.045053583 -0.02424595 -0.052210394
-0.0077449344 0.08060296 -0.031860296 -0.019775156 0.003201002 0.085242726 0.025242398 -0.06351207
-0.036573272 0.06031188 -0.04168812 -0.05676032 0.06253274 -0.05130084 0.02593195 -0.014141212
-0.08827808 0.04521901 0.016336555 0.0070121163 0.09372529 -0.074371085 -0.07358425 0.0774011
0.029118076 -0.040310428 0.0114459125 -0.072943784 0.008141891 -0.022960722 -0.020298602 0.06756241
-0.055539604 -0.034527697 0.041281413 -0.02772083 -0.076956406 -0.0012171506 -0.016735267 -0.066473
0.057320565 0.016705671 0.029657366 -0.041778054 0.05726559 -0.038281463 -0.031693958 -0.04129992
-0.007048308 -0.08922759 -0.11051456 -0.08169627 0.043001298 -0.032978866 -0.05181966 -0.07233981
-0.08463453 -0.040412005 0.0005446898 -0.08504441 0.02734297 -0.068181515 -0.07597924 -0.039663065
0.0565329 -0.071401626 -0.096597746 -0.007562907 -0.04666969 -0.06032702 -0.06037393 -0.007507577
0.008221013 0.027966408 -0.07042316 -0.09221363 -0.0007718203 -0.0053766947 -0.073508546 0.039288364
0.061439052 -0.039709117 -0.032515824 0.06813705 0.040823318 0.018422278 0.04404944 0.042701174
-0.045139957 0.00014124106 0.0038948888 0.037888147 0.017518718 -0.020283056 -0.09498453 0.0456502
0.028110644 0.015480719 -0.060617175 0.025523927 -0.03523447 0.05713911 -0.035869088 -0.043687567
-0.006605332 0.00079654885 -0.024838073 -0.021402732 0.0088339755 -0.073867746 0.028562121 0.06604618
0.02009678 -0.06881455 -0.0052542496 0.042866997 -0.011220602 0.06998044 0.015468132 -0.09490627
0.012084489 -0.087746605 0.005800153 -0.021978872 -0.032082405 0.07572242 0.05289639 -0.045438707
0.069152445 0.041780557 0.07076755 -0.08322444 -0.019845473 -0.07697506 0.0074215014 -0.0726507
0.0102997385 0.0029949874 0.032073878 -0.07341257 -0.058784246 -0.09260499 -0.04312428 0.026839048
-0.086401604 0.009442772 -0.048425373 -0.050605737 -0.048405904 -0.018490534 -0.063206926 -0.013405888

encoder.2.bias f4 [64]
00000000: 1503 beba ef5d 8ebd 9fd1 f8bc f397 85bd
00000010: 1a03 03be 3b6f 28bd 5055 1b3e fbe1 d8bd
00000020: 9c6f 463e d86e 853b 91b8 243c 5ee2 dcbb
00000030: 9fde 813d 1203 373c 5125 113b fd5f f03d
00000040: 3318 95bc 033d 5d3c d54f 2abd 561a 03bd
00000050: b053 433e 83c1 f9bd c839 213d bbd2 35bc
00000060: cb1d 9abd f707 bb3d 5859 39be 27b3 13bc
00000070: b152 8d3c 2c48 7f3b 0c25 57bd e69c edbb
00000080: 4775 823d f1f1 ac3d 3ba3 89bb 455a 053d
00000090: f36c 9f3d 00b5 34bd abe4 d5bb d8dc c23d
000000a0: 6ddc b83d bef5 903c 00e3 0e3d 021b ecbc
000000b0: 3823 683d 0392 823d 46a4 2a3e 256a dd3c
000000c0: 946f 4bbc c96e 43bb 550e c0bd f7e3 46bd
000000d0: 54d4 ce3c 512c 8ebc 1b20 24be 14cd 77bd
000000e0: e770 4cbd 9768 37bd ef35 a93c 575a c4bd
000000f0: 4bea d03d a861 dbbd c1b5 463d dce5 853e
-0.0014496768 -0.0695151 -0.030373393 -0.06523123 -0.12794152 -0.041121703 0.15169263 -0.10589977
0.19378513 0.0040720515 0.01005377 -0.0067408523 0.0634129 0.011170166 0.0022147486 0.11737058
-0.018200016 0.013503316 -0.04158004 -0.032007538 0.19074893 -0.121951126 0.039361745 -0.011097605
-0.07525214 0.091323785 -0.18100488 -0.009014881 0.017251344 0.003895293 -0.052525565 -0.0072513698
0.06370025 0.08444584 -0.004200367 0.03255679 0.07784452 -0.044117928 -0.0065275035 0.09514779
0.09026418 0.017695304 0.034884453 -0.028821472 0.056674212 0.06375506 0.16664228 0.027028153
-0.012416739 -0.0029820672 -0.093777336 -0.048557248 0.02524773 -0.017355116 -0.16027872 -0.060498312
-0.04991236 -0.04477748 0.0206556 -0.095875435 0.10200938 -0.10711986 0.048513178 0.2615193
