outputs/associative/image_encoder.pth (torch, 437529 bytes, 4 tensors)

encoder.0.weight f4 [128, 784]
0	0xbcfe8195	-0.031067649
1	0x3c9a591e	0.018841323
2	0x3bca4380	0.0061725974
3	0x3cbcb802	0.02303696
4	0x3ce41226	0.027840685
5	0x3ca88fda	0.020576406
6	0x3b8727d8	0.004124623
7	0x3c163520	0.009167939
8	0xbca22a2e	-0.019795503
9	0xbcc48c80	-0.023992777
10	0x3d096dd1	0.033551995
11	0x3cbdeb0a	0.023183364
12	0xbc164372	-0.009171354
13	0xbc81718c	-0.015801214
14	0xbcb0668e	-0.021533277
15	0x3c35ed64	0.011103962
16	0x3cec96da	0.028880525
17	0xbc31d1ce	-0.010853244
18	0xbb813898	-0.003943514
19	0x3b4e2eb0	0.0031460933
20	0x3c942646	0.018084656
21	0x3d0192f1	0.031634275
22	0xb9c2fb00	-0.00037189573
23	0xbc8aa490	-0.016924173
24	0xbcf3e73a	-0.029773343
25	0xbcf8b21a	-0.030358363
26	0xbc363bca	-0.011122653
27	0xbc99f37e	-0.018792864
28	0x3cdc5c46	0.026899468
29	0xbd08e6b0	-0.033423126
30	0x3d09e947	0.033669736
31	0xbc48a680	-0.012246728
32	0x3cfa1b36	0.030530553
33	0x3ce004c6	0.027346026
34	0x3c81e7d8	0.015857622
35	0xbba867c0	-0.005139321
36	0xb9114800	-0.000138551
37	0xbc465cdc	-0.0121071
38	0xbc432986	-0.011911755
39	0x3d0971c1	0.03355575
40	0x3c6fe13c	0.014641102
41	0x3ceb078a	0.028690118
42	0xbcce2cce	-0.025167849
43	0x3d02d6bd	0.03194307
44	0xbc0e1e80	-0.008674264
45	0x3c5528fc	0.01301026
46	0x3ca21e90	0.019789964
47	0xbba429d4	-0.005009869
48	0x3c8e61de	0.017380651
49	0xbb0c6570	-0.0021422766
50	0x3cd0edda	0.025504041
51	0x3c604b68	0.013689853
52	0x3c2d86a8	0.010591187
53	0xbca03d77	-0.019560559
54	0xbc4d095c	-0.0125144385
55	0xbcaaf6f3	-0.020869708
56	0xbcb1d83e	-0.021709558
57	0x3c1cc988	0.009569533
58	0xbd054957	-0.032540645
59	0x3cae1d28	0.021254137
60	0x3bebf820	0.0072012097
61	0xbc46620e	-0.012108339
62	0xbcf81db1	-0.030287595
63	0xbc66c4fc	-0.014085051
64	0x3ba3dcc8	0.0050006844
65	0x3d0892b1	0.03334302
66	0xbb21f490	-0.002471242
67	0xbc0c12e0	-0.008549422
68	0xbc369906	-0.011144882
69	0x3bd60ac8	0.006532047
70	0xbd1018ed	-0.03518002
71	0xbcc219a5	-0.023693869
72	0xbcd630c0	-0.026146293
73	0x3ca2d02a	0.019874651
74	0xbc0b6d40	-0.008509934
75	0xbd080307	-0.033206012
76	0xbcb54c30	-0.022131056
77	0x3c112c70	0.008860692
78	0x3cc9c7be	0.024631377
79	0x3bbfe088	0.0058556236
80	0x3cf15cee	0.029463258
81	0x3ae007a0	0.0017092116
82	0xbcfbc61e	-0.030734118
83	0x3d087d21	0.033322457
84	0x3cf69cce	0.030104067
85	0x3ca0e37c	0.019639723
86	0x3bbb8128	0.0057221837
87	0xb9f6f900	-0.00047106296
88	0x3c8d1d92	0.017226014
89	0x3cb87b06	0.0225196
90	0x3b691830	0.0035567395
91	0x3cc1d188	0.023659483
92	0x3b314380	0.002704829
93	0x3c86a79c	0.016437344
94	0x3c229ec0	0.009925544
95	0x3cc120ec	0.023575269
96	0xbb3aa370	-0.0028478764
97	0x3c126160	0.008934349
98	0x3babeb10	0.0052465275
99	0x3c6a7c78	0.014311902
100	0xbc2371c6	-0.009975856
101	0xbd0e5d3d	-0.034756888
102	0xbbad2a54	-0.005284587
103	0x3c911fb8	0.01771532
104	0x3c81063a	0.01575004
105	0xbd07c4bc	-0.033146605
106	0xba0fa000	-0.0005478859
107	0xbcc538aa	-0.024074871
108	0x3d00e9a7	0.03147283
109	0xbbce899c	-0.0063030254
110	0x3d08db3d	0.033412207
111	0x3cd6adb0	0.026205868
112	0x3b0a19b0	0.002107244
113	0xbc5decc0	-0.013545215
114	0xbc30702e	-0.010768933
115	0x3ce219f2	0.027600262
116	0x3bd72428	0.0065655895
117	0x3d02a90f	0.031899508
118	0x3c11741c	0.00887778
119	0x3c0aca48	0.008471079
120	0x3c65c3c0	0.014023721
121	0xbbb27978	-0.005446609
122	0x3ca87a1a	0.020566035
123	0x3c9729c8	0.01845254
124	0x3bf484b0	0.0074621066
125	0x3b82c768	0.0039910562
126	0xbd1a63dd	-0.037692893
127	0xbcd9ea73	-0.026601052
128	0xbce98adb	-0.028508594
129	0x3c913d97	0.017729564
130	0xbc4fc2da	-0.012680734
131	0xbbf2dff6	-0.007411952
132	0xbb8562f8	-0.004070636
133	0x3c0ee504	0.008721594
134	0x3cc75eda	0.024337221
135	0xbc336560	-0.010949463
136	0x3d013e9d	0.031553853
137	0x3c45eca0	0.012080342
138	0xbc0fe5e0	-0.008782834
139	0xbcaa1a68	-0.020764545
140	0xbcf8ef33	-0.030387497
141	0x3cd6a9c6	0.026204001
142	0xbc172f1c	-0.00922754
143	0x3b0ad4a0	0.0021183863
144	0x3cc52ff0	0.02407071
145	0x3bb92108	0.0056496896
146	0x3ccdfa9c	0.025143914
147	0xbb6ef1e0	-0.0036460087
148	0x3c1893dc	0.009312596
149	0xbc47a099	-0.012184286
150	0xbc14d7ed	-0.009084684
151	0xbd21d767	-0.039512064
152	0x39af8656	0.0003347869
153	0xb7293298	-1.0084965e-05
154	0xbd0f461b	-0.034978967
155	0xbb350c0c	-0.0027625589
156	0x3b33a4e8	0.0027411524
157	0xbd2be0d7	-0.04196247
158	0xbd07619d	-0.033052076
159	0xbd2a1e5d	-0.041532863
160	0x3b961f1b	0.004581345
161	0xbb917d38	-0.004439976
162	0xbce45253	-0.027871286
163	0x3d0d836b	0.034549158
164	0x3c65c644	0.014024321
165	0xbc55a10a	-0.013038883
166	0x3c79459c	0.01521435
167	0x3cc4350e	0.02395108
168	0x3c98eac2	0.018666629
169	0x3cf8036e	0.030275073
170	0x3c8d2788	0.017230764
171	0xbcd9c11a	-0.026581336
172	0x3c8b40e0	0.016998708
173	0xbc78aaee	-0.015177472
174	0xbcb872f0	-0.022515744
175	0x3c3ef258	0.011654459
176	0x3c552f17	0.013011715
177	0x3c8e631f	0.017381249
178	0xbcf9f216	-0.030510943
179	0xb98a246c	-0.00026348548
180	0x3c834fd9	0.016029285
181	0xbd165af1	-0.036707822
182	0x39615854	0.00021490577
183	0xbd09fba2	-0.03368724
184	0x3ca0ecc2	0.019644145
185	0xbd345143	-0.04402281
186	0x3cd6d21a	0.026223231
187	0xbc17090c	-0.009218466
188	0xbcbad685	-0.022807369
189	0xbca02500	-0.019548893
190	0xbbf989f0	-0.0076153204
191	0x3cad8fe8	0.021186784
192	0xbca00fa5	-0.01953871
193	0x3ca55a86	0.020184767
194	0xbcb89a75	-0.022534588
195	0x3ce3e956	0.027821224
196	0xbcec9e45	-0.028884063
197	0x3cd1aa7e	0.025593992
198	0x3d05f873	0.032707643
199	0xbb841e78	-0.0040319525
200	0x3d0685e3	0.032842528
201	0x3d01b8b1	0.031670276
202	0x3c9b7156	0.018974941
203	0xbcad4f35	-0.021155933
204	0x3bd7f7ea	0.006590833
205	0x3c7b6c3e	0.015345631
206	0x3ccaacfa	0.024740685
207	0xbd181246	-0.037126802
208	0xbab7022d	-0.001396244
209	0x3ce0600c	0.027389549
210	0xbcb6e191	-0.022324355
211	0xbc741c57	-0.014899335
212	0xbd2062e6	-0.039156817
213	0x3bdbcb42	0.00670758
214	0x3c94b845	0.018154273
215	0x3c921f78	0.017837271
216	0xbcc58331	-0.024110408
217	0xbd104bf3	-0.03522868
218	0x3ce8be30	0.028411001
219	0xbc6be418	-0.0143976435
220	0xbcea765e	-0.028620895
221	0x3b4ce310	0.003126327
222	0xbcb60cfa	-0.022222985
223	0x3c6e7d80	0.014556289
224	0x3c1765c4	0.009240571
225	0xbcabe00a	-0.020980854
226	0x3af156c0	0.0018412694
227	0x3c9b96a0	0.018992722
228	0x3c7a2e00	0.015269756
229	0x3d098797	0.033576574
230	0xbcdbc05a	-0.026825119
231	0x3b450e80	0.0030068457
232	0x3c8cbd2d	0.01718005
233	0xbc9e02d7	-0.019288464
234	0xbc2350f5	-0.009968032
235	0xbcd4bf4b	-0.025970122
236	0xbc2aedb9	-0.010432654
237	0xbbf6d7da	-0.0075330557
238	0x3c6dfbfe	0.014525412
239	0xbc967704	-0.018367298
240	0xbd0e2032	-0.034698673
241	0xbb873a5f	-0.0041268314
242	0x3a197eca	0.000585538
243	0x3bcade62	0.006191061
244	0x3c80dd52	0.015730534
245	0x3cd8d899	0.02647047
246	0xbcefede1	-0.029288234
247	0xbd0d7d64	-0.03454341
248	0xbd0e4320	-0.034731984
249	0x3aa4e260	0.0012579672
250	0xbc2db74e	-0.010602785
251	0x3b4969a0	0.0030733123
252	0x3c0c6658	0.0085693225
253	0x3c853712	0.016261611
254	0x3c8211a0	0.015877545
255	0x3c275b34	0.010214616

encoder.0.bias f4 [128]
0	0xbd00f9cf	-0.031488236
1	0x3cbf7d07	0.023375047
2	0xbc599653	-0.013280469
3	0x3d6480d5	0.055786926
4	0xbd193815	-0.037407
5	0x3e3fdfdb	0.18737738
6	0xbbb1f0b4	-0.0054303054
7	0xbd1104a7	-0.035404827
8	0x3e47ffb9	0.19531144
9	0x3e8cbf0e	0.27489513
10	0x3e1d74c1	0.1537657
11	0x3e019732	0.12655333
12	0x3e068041	0.13134862
13	0x3db53f56	0.08849971
14	0x3db5eeb4	0.0888342
15	0x3e0dae89	0.13836111
16	0x3ea0aa88	0.31380105
17	0xbd3df0b2	-0.046372123
18	0x3e1f85f1	0.15578438
19	0x3b4399a9	0.0029846227
20	0xbd388475	-0.045048196
21	0x3e0158af	0.12631486
22	0x3e499032	0.19683912
23	0xbd2bc780	-0.041938305
24	0x3d47103c	0.048599467
25	0xbbe89130	-0.007097386
26	0x3c87073a	0.016482938
27	0x3ea0890b	0.31354555
28	0x3e0845e2	0.13307908
29	0x3d1c9df7	0.038236585
30	0xbd153a94	-0.036432818
31	0x3dac8087	0.08422952
32	0x3d19a34e	0.037509255
33	0x3dc4b6f5	0.09605209
34	0x3e40a79e	0.18813941
35	0x3e16dd55	0.14732869
36	0x3cb42175	0.02198861
37	0x3b091ca8	0.0020921621
38	0x3e119d5a	0.14220181
39	0xbc08770a	-0.008329162
40	0xbbc512b1	-0.006014191
41	0x3e4d6702	0.20058826
42	0x3e06582d	0.13119574
43	0x3e067f5c	0.13134521
44	0xbbe17943	-0.0068809106
45	0x3e13f515	0.1444896
46	0x3e0dda80	0.13852882
47	0xbb8d54f2	-0.004313105
48	0xbc78912f	-0.015171333
49	0xbc1be45f	-0.009514897
50	0x3d968956	0.073504135
51	0x3dd5c625	0.10438184
52	0x3d50dc9c	0.05099164
53	0xbcc9fbea	-0.024656255
54	0x3e7d927b	0.24762909
55	0x3df9b726	0.12193136
56	0xbcaf7261	-0.021416845
57	0x3e7871eb	0.24262206
58	0x3e7d4e49	0.24736895
59	0x3b7f483d	0.003895297
60	0x3de7c851	0.11317504
61	0x3db7cc9e	0.089745745
62	0xbd2e59f4	-0.042566255
63	0x3e0c2bb5	0.13688548
64	0xbbab6dab	-0.0052315793
65	0x3e535679	0.20638455
66	0x3c39ac7c	0.011332627
67	0x3d03f2b0	0.032213867
68	0x3e15cdcc	0.14629287
69	0x3c7f74e6	0.015591836
70	0xbc714b85	-0.014727478
71	0x3d8f5b07	0.06999784
72	0x3e212875	0.1573809
73	0x3e28bbe2	0.16477922
74	0x3e93b98b	0.28852496
75	0x3d181c13	0.03713615
76	0x3c35187d	0.011053202
77	0x3e3a573e	0.18197343
78	0x3e935b69	0.28780678
79	0x3e11325d	0.14179368
80	0x3c3c176b	0.011480193
81	0x3d977857	0.07396
82	0x3de606f0	0.11231792
83	0x3e4ff9fb	0.20310204
84	0x3d707348	0.05870369
85	0x3cf76e0a	0.030203838
86	0xbd04b858	-0.032402366
87	0xbcffaf2f	-0.031211464
88	0xbc6e127a	-0.014530772
89	0x3e2002bb	0.15626042
90	0x3d48938c	0.048968837
91	0x3ca90e7b	0.020636788
92	0xbc0a8bfa	-0.008456225
93	0x3e333167	0.17499314
94	0x3dacb405	0.084327735
95	0x3b20f8b2	0.0024562296
96	0xbc35ff25	-0.0111081945
97	0xbd10fafc	-0.035395607
98	0x3cdefd2b	0.02722033
99	0x3e0e3c0d	0.13890095
100	0x3da11a3f	0.07866334
101	0x3e609785	0.219328
102	0x3e4ff509	0.20308317
103	0x3c0710fb	0.008243795
104	0x3e20923d	0.15680785
105	0x3c92d9e5	0.017926166
106	0x3e3b5461	0.18293907
107	0xbd038f04	-0.032118812
108	0x3e1afad0	0.1513474
109	0x3cf66a02	0.030079845
110	0x3dd687e0	0.10475135
111	0x3e98861b	0.29789814
112	0x3db37851	0.08763183
113	0x3b5a669f	0.0033325327
114	0x3e08076a	0.13284078
115	0x3ea0d1dd	0.31410113
116	0x3ddad3ff	0.10684966
117	0xbc6cdea8	-0.014457382
118	0x3e3ee62b	0.1864249
119	0xba0ea92e	-0.000544208
120	0x3e34630e	0.17615911
121	0xbd1e8d69	-0.038709078
122	0x3e54a66d	0.20766611
123	0xbc2d7605	-0.01058722
124	0xbbb9b315	-0.0056671
125	0xbbf4ef67	-0.007474828
126	0x3d9a0ae8	0.075216115
127	0x3c9e4c2b	0.01932343

encoder.2.weight f4 [64, 128]
0	0xbd77f6c8	-0.060538083
1	0x3d1fcfaa	0.039016403
2	0x3d18ea92	0.03733308
3	0x3c2ed83d	0.010671672
4	0x3c8716c5	0.01649035
5	0x3d289453	0.041157078
6	0xbbb62e76	-0.005559738
7	0xbce75064	-0.028236575
8	0x3df49be0	0.11943793
9	0xbe2504b3	-0.16115074
10	0x3dcab87a	0.09898467
11	0x3dfc9e53	0.123348854
12	0xbcf75344	-0.030191071
13	0xbd4ff660	-0.05077207
14	0x3b996074	0.0046806876
15	0xbc310c16	-0.010806104
16	0xbd9234b9	-0.07138962
17	0xbc6e0db9	-0.014529639
18	0x3da34018	0.07971209
19	0x3d91334c	0.07089862
20	0xbced7259	-0.02898519
21	0x3d11c756	0.035590492
22	0xbcd5138e	-0.026010301
23	0x3d8b33c4	0.06796983
24	0xbc6ab74a	-0.014325926
25	0xbdac578c	-0.08415136
26	0xbd8aeb04	-0.06783107
27	0xbe662309	-0.22474302
28	0xbca8177e	-0.020519014
29	0xbcca36ed	-0.024684394
30	0x3d6856b2	0.056723304
31	0x3db130b7	0.0865187
32	0xbc19471d	-0.009355334
33	0xbbde85c1	-0.006790847
34	0x3e1782e4	0.14796025
35	0xbd857ad7	-0.065175705
36	0xbd1f6482	-0.03891421
37	0xbcc7b41d	-0.024377877
38	0xbd35fbcf	-0.044429597
39	0x3cc95de6	0.024580907
40	0xbcbb6678	-0.02287601
41	0x3e286271	0.16443802
42	0xbd3ea2c1	-0.046541933
43	0xbe542aee	-0.20719501
44	0xbc8f92a2	-0.017525975
45	0x3d5c09a4	0.05372013
46	0x3af80981	0.0018923731
47	0x3d024884	0.031807438
48	0xbdae29d1	-0.085040696
49	0xbd6cc6a7	-0.057806637
50	0x3c88e271	0.016709538
51	0x3d9e70d2	0.077363625
52	0x3cc407f5	0.023929575
53	0x3d733f99	0.059386823
54	0x3dab723f	0.083714
55	0xbd2773b5	-0.04088183
56	0x3dadf060	0.084931135
57	0xbdcd58d0	-0.10026705
58	0x3e3ca942	0.18423942
59	0xbb56f495	-0.003279959
60	0x3cb680a9	0.022278147
61	0xbe3c81db	-0.18408911
62	0x3d856b18	0.06514567
63	0x3c922c7f	0.017843483
64	0xbd922ea2	-0.07137801
65	0x3dedfe2b	0.11620744
66	0xbd853ae8	-0.06505376
67	0x3d9d633c	0.07684943
68	0x3d4867c2	0.048927076
69	0x3c0537e2	0.008130999
70	0xbdbb2467	-0.091378026
71	0xbdf81d35	-0.12114946
72	0x3e145bcf	0.14488147
73	0x3d07bf7c	0.033141598
74	0xbe02595e	-0.12729403
75	0xbe253872	-0.16134813
76	0x3d93fefb	0.07226368
77	0xbd94caec	-0.07265267
78	0x3dc1368c	0.09434232
79	0x3dac99e7	0.08427792
80	0x3cd45f28	0.02592428
81	0xbd492d56	-0.0491155
82	0x3c9653a7	0.018350435
83	0x3d8afeca	0.067868784
84	0xbd353556	-0.04424032
85	0x3c95bb1b	0.018277695
86	0xbb235e15	-0.0024927903
87	0x3bf152f4	0.007364625
88	0x3d28b34f	0.041186627
89	0xbe54108e	-0.2070944
90	0xbd7bb00b	-0.061447185
91	0xbd8e2e55	-0.06942431
92	0xbd420726	-0.0473701
93	0xbc99dd99	-0.018782424
94	0x3cc01104	0.023445614
95	0xbd44439d	-0.047916044
96	0xbd3a151f	-0.0454303
97	0x3bd2045c	0.006409211
98	0x3c0b8f9b	0.008518125
99	0x3ccf4cc7	0.025305165
100	0xbdfa8f3d	-0.12234352
101	0xbd08efbf	-0.033431765
102	0x3cd2cc0a	0.025732059
103	0x3d0dc0c4	0.034607664
104	0x3daf9341	0.08573008
105	0xbd82792f	-0.0637077
106	0x3e118708	0.14211667
107	0xbce25008	-0.027626052
108	0xbdd8ffd9	-0.10595674
109	0x3c924edb	0.017859867
110	0xbd80fe33	-0.06298485
111	0x3e4ed23b	0.20197384
112	0xbcc14b82	-0.023595575
113	0xbbb292ea	-0.0054496424
114	0x3e3613ab	0.1778094
115	0xbd3968d0	-0.045265973
116	0xbd44c61c	-0.048040494
117	0x3c87fbf1	0.016599627
118	0xbd475f5e	-0.048674934
119	0x3c9b2d2e	0.018942442
120	0x3df76247	0.12079292
121	0x3d365dd0	0.04452306
122	0x3d9a683e	0.07539414
123	0x3d06cff2	0.032913156
124	0xbd9e82b0	-0.077397704
125	0xbcddf4b8	-0.02709423
126	0xbda35395	-0.079749264
127	0x3cc8e3d0	0.024522692
128	0x3d3e0a06	0.046396278
129	0xbda220ff	-0.0791645
130	0x3bd8a6ca	0.0066116797
131	0x3df827d9	0.12116975
132	0x3d44035b	0.047854763
133	0x3ceb72a3	0.028741186
134	0xbba5856b	-0.005051305
135	0x3d08d9db	0.03341089
136	0x3d78ff29	0.060790215
137	0xbda3e23d	-0.08002136
138	0xbd2147b4	-0.039375022
139	0x3dc49b17	0.095998935
140	0xbcf967a1	-0.030444922
141	0x3da246ab	0.07923635
142	0xb8152e62	-3.5567566e-05
143	0x3dcbb90f	0.099474065
144	0xbe2ac0ab	-0.1667506
145	0xbc69c5b4	-0.0142683275
146	0x3c901af0	0.01759097
147	0x3ce5615e	0.02800053
148	0x3ceb7978	0.028744444
149	0x3d7fe9f0	0.06247896
150	0x3e0e1a61	0.1387725
151	0xbd89f7e3	-0.06736734
152	0x3ad773c6	0.0016437701
153	0xbd9ff974	-0.07811251
154	0x3dae4eeb	0.08511146
155	0x3d176f51	0.036971394
156	0xbc69c9a8	-0.01426927
157	0x3d5197b5	0.05117007
158	0xbd5e9b27	-0.054347184
159	0x3cd47dd9	0.025938915
160	0xbe2843ec	-0.1643216
161	0xbda549ed	-0.08070741
162	0x3cc86ed1	0.024466904
163	0x3d802a6f	0.062580936
164	0xbcbe1e8a	-0.023207922
165	0x3d7e0d85	0.062024612
166	0x3b569497	0.0032742375
167	0x3da9fdcc	0.08300361
168	0xbb89d3ff	-0.00420618
169	0xbd94e146	-0.0726953
170	0x3d9103e8	0.07080823
171	0xbd8dbc79	-0.06920714
172	0xbd701147	-0.058610227
173	0x3d81bd18	0.06334895
174	0xbb123d2b	-0.002231429
175	0xbd90e1f0	-0.07074344
176	0x3d494fce	0.049148373
177	0x3d409d56	0.047025047
178	0x3dabbc48	0.08385521
179	0x3d185f5b	0.037200313
180	0x3d4132c5	0.04716756
181	0xbd35b592	-0.044362612
182	0x3c2b700f	0.010463729
183	0x3d0c1466	0.03419914
184	0xbd59b0a7	-0.053146984
185	0xbd80bbcd	-0.0628582
186	0xbbf3e96d	-0.007443598
187	0xbd9a6e26	-0.075405404
188	0xbd288d3a	-0.04115031
189	0xbbd2fa5e	-0.0064385375
190	0x3d945c1d	0.07244132
191	0x3d9ccafb	0.07655903
192	0x3dce9c57	0.10088413
193	0xbda09526	-0.07840948
194	0xbd33a295	-0.043856222
195	0x3d09e92c	0.033669636
196	0x3d11b102	0.0355692
197	0xbd9b01ad	-0.07568679
198	0xbd4f9656	-0.05068048
199	0x3d79e64e	0.06101065
200	0xbcca05a3	-0.02466089
201	0xbd96d5ac	-0.073649734
202	0xbc5d7e08	-0.013518818
203	0xbb30f6fe	-0.0027002688
204	0x3da18710	0.07887089
205	0x3db29d85	0.08721451
206	0x3dceeb5b	0.10103484
207	0xbcc0de65	-0.023543546
208	0x3c336488	0.0109492615
209	0x3d3fb7ee	0.04680627
210	0x3ce381c7	0.027771844
211	0xbd20cebd	-0.03925966
212	0x3cf099b0	0.029370159
213	0x3d6aedc6	0.057355665
214	0xbc9f8dff	-0.019476889
215	0x3ca0a678	0.019610628
216	0xbd7ee86c	-0.062233374
217	0xbc4d83b9	-0.012543612
218	0x3d2d085e	0.042244308
219	0x3cbe9cdf	0.023268161
220	0xbc37e6eb	-0.011224489
221	0xbacec9a5	-0.0015776647
222	0x3d8716ba	0.065961316
223	0xbcd97127	-0.026543213
224	0xbc17879f	-0.009248643
225	0x3db9f1bd	0.09079311
226	0xbceda212	-0.029007945
227	0xbd973b0a	-0.07384308
228	0xbde7cbfc	-0.11318204
229	0x3d03e83e	0.032203905
230	0x3e5980cc	0.21240538
231	0xbdacafeb	-0.08431991
232	0xbd61f6bc	-0.055166945
233	0x3b0a995b	0.0021148536
234	0x3b87584e	0.0041304
235	0xbc127182	-0.008938195
236	0x3dfcf13c	0.12350699
237	0x3dd95c2e	0.10613285
238	0xbb62b2e5	-0.0034591493
239	0x3d446d3d	0.04795574
240	0x3d2931df	0.041307326
241	0x3c20b77f	0.009809374
242	0x3ab93ff7	0.0014133443
243	0xbdac1055	-0.084015526
244	0xbbde953f	-0.006792694
245	0xbcb44334	-0.022004701
246	0x3d9eebef	0.077598445
247	0x3cc20e6b	0.023688516
248	0xbd86415a	-0.065554336
249	0xbb8d11a7	-0.004305083
250	0xbc0a8692	-0.008454936
251	0x3d32b70d	0.043631602
252	0x3d992cdc	0.07479259
253	0xbd235ff8	-0.039886445
254	0x3de2359a	0.1104538
255	0x3dbad661	0.09122921

encoder.2.bias f4 [64]
0	0xbde831a3	-0.113375925
1	0x3d9f95e3	0.077922605
2	0x3e379edf	0.17931698
3	0xbdf7cd77	-0.12099736
4	0x3dae85e7	0.085216336
5	0x3ad8c992	0.0016539565
6	0xbe8b7b91	-0.2724271
7	0x3d2234ed	0.039601255
8	0xbe981c1e	-0.29708952
9	0xbac41f4c	-0.001496294
10	0xbe1b33fd	-0.1515655
11	0x3e619e2f	0.22032999
12	0xbe87c51a	-0.26517564
13	0x3e08c893	0.13357763
14	0xbd0d9413	-0.034565043
15	0xbd734213	-0.059389185
16	0xbea80d22	-0.3282252
17	0xbe28571b	-0.16439478
18	0xbed492ed	-0.41518345
19	0x3e930ec4	0.28722203
20	0xbe2c5883	-0.1683064
21	0xbbb2a932	-0.0054522986
22	0x3e098fe9	0.13433804
23	0x3d1ff381	0.039050583
24	0xbd9f507c	-0.07779023
25	0xbe52da1a	-0.20591012
26	0xbe91c9d1	-0.28474286
27	0xb9e42c83	-0.00043520713
28	0x3d6aa464	0.05728568
29	0xbbaaad14	-0.005208621
30	0xbe1b17f4	-0.15145856
31	0xbd023a32	-0.03179378
32	0x3e382778	0.17983806
33	0xbda06ea6	-0.078336045
34	0xbe119821	-0.14218189
35	0x3d736e30	0.059431255
36	0xbc8a237e	-0.016862627
37	0x3ce5e83b	0.028064838
38	0x3dcb6c1a	0.09932728
39	0x3f01b655	0.5066884
40	0x3eab856e	0.33500236
41	0xbe022b76	-0.12711892
42	0x3cc6bd7b	0.024260273
43	0xbe8fbac6	-0.28072184
44	0xbeae72c0	-0.34071922
45	0x3e2681bc	0.16260427
46	0xbe233e09	-0.15941633
47	0x3ee013f9	0.43765238
48	0xbdef9471	-0.11698235
49	0xbcddd810	-0.027080566
50	0xbd12d27a	-0.035845257
51	0xbe83287b	-0.25616822
52	0xbe5021fb	-0.20325463
53	0xbeb996fe	-0.3624801
54	0xbcdc68f7	-0.02690552
55	0x3e446163	0.19177775
56	0xbec22045	-0.37915245
57	0x3e776a29	0.2416159
58	0xbe34f401	-0.17671205
59	0x3e2bb0d5	0.16766675
60	0xbcee0cad	-0.029058779
61	0x3dadcdd1	0.08486522
62	0x3ddd8c9c	0.10817835
63	0x3c0df9fc	0.008665558
