outputs/associative/image_encoder.pth (torch, 437529 bytes, 4 tensors)

encoder.0.weight f4 [128, 784]
000000 b5 02 83 bc 4f 98 e6 bc d8 2e c8 3d 8a cb 84 3a
       -0.015992502 -0.028148798 0.0977456 0.001013146
000010 2e 96 0a bc 9b d9 c9 bc 54 c9 16 bb e1 a6 9e bc
       -0.008458657 -0.024639895 -0.0023008185 -0.019366683
000020 8e c8 b7 bc f2 b4 58 bd 7d f1 1a bc 4f dd 0e 3d
       -0.0224345 -0.052906938 -0.009456989 0.034879025
000030 1b 90 8f bd 35 47 e8 3d 1e f3 f6 3c 0b aa e7 3c
       -0.07009908 0.11341707 0.030145224 0.028279325
000040 38 aa 5c bd 36 e8 9d bc b3 a3 18 3d 39 ae 5b 3d
       -0.05387327 -0.019275766 0.03726549 0.05363295
000050 c5 27 22 3d 68 59 0d 3d 18 28 c8 3c 3e 3d 59 3d
       0.03958871 0.034509093 0.02443318 0.05303692
000060 3c 12 49 3d 7e 72 25 bb 57 56 52 3c ad 66 49 bc
       0.049089655 -0.0025245245 0.012837968 -0.012292546
000070 d9 b0 3d 3d 15 73 7f 3d a0 19 42 bd 7e 0a e4 bc
       0.046311233 0.06236561 -0.04738772 -0.027837034
000080 a8 56 5c 3d 52 68 32 3d b3 9a bc bc 41 f0 3b 3c
       0.05379358 0.04355652 -0.023022985 0.011470855
000090 3b b1 b1 bd 41 5e ba 3b 73 af 0f bc 74 1c 99 3d
       -0.08676382 0.0056875055 -0.008769858 0.0747613
0000a0 fd 4e a6 bc 03 e3 25 3d 3b 52 e1 bc bf 01 d7 3c
       -0.020301336 0.0404997 -0.02750503 0.02624595
0000b0 76 83 1e 3d 81 df 78 bc ca f4 88 bc 79 f5 a8 bd
       0.03869959 -0.015190006 -0.016718287 -0.08249945
0000c0 80 e4 60 bd 7e 40 19 3d b2 82 52 bb 4e 5a 6f 3d
       -0.054905415 0.03741502 -0.0032121358 0.05843573
0000d0 a4 96 74 3d 94 ec c3 3b df ee b0 3d 59 43 0b 3d
       0.059713975 0.00597913 0.08639311 0.033999775
0000e0 be b9 86 bc de 18 64 bb a8 ee 22 3c d3 c1 98 3d
       -0.01644599 -0.003480486 0.009944595 0.07458844
0000f0 43 84 64 bc 91 35 cf bc db 0c 94 bd 6f 5a 8d 3c
       -0.013947549 -0.025294097 -0.072290145 0.017255036
000100 ed 39 25 bc 69 28 dd bc 49 2a 27 3b 12 9e 13 3d
       -0.010084611 -0.026996808 0.0025507382 0.03603942
000110 df d5 cf bc 6b 58 b8 3d 4c 73 9e 3d 26 8e b0 3d
       -0.025370536 0.090012394 0.07736835 0.08620863
000120 24 04 3c 3b 00 16 88 bc 88 16 9b 3c 24 3b a1 bb
       0.0028688991 -0.016612053 0.018931642 -0.00492038
000130 46 18 83 3c 19 e3 96 bd 76 28 a9 3c 95 d5 53 3d
       0.016002785 -0.07367534 0.020649176 0.05171736
000140 31 0d f0 bc 35 93 00 bc 03 35 5c 3d 2e 2b 7e 3d
       -0.029303165 -0.007847597 0.053761493 0.062052898
000150 66 ed d9 3b f1 4b f6 bc 48 44 73 3c da 62 00 3c
       0.0066506146 -0.030065509 0.0148478225 0.007836068
000160 23 9a 25 bb ae ad 66 3d 5e f4 13 3c 9b e5 72 3b
       -0.0025268875 0.056317978 0.00903043 0.0037063125
000170 50 eb 07 bd 5c 47 d7 bc 01 b3 47 3d d2 92 96 3d
       -0.033183396 -0.026279144 0.048754696 0.073522225
000180 20 8a 3f 3d 7b db ef 3c 06 11 73 3d 0f 71 85 3d
       0.046762586 0.029279461 0.059342407 0.06515705
000190 dc ce 99 3d 01 7a 91 3d d0 da af 3c a8 61 6b 3d
       0.075101584 0.071033485 0.021466643 0.05746618
0001a0 7c e8 f2 b9 68 8f 9e 3d 83 f0 0c 3d 1a ba d7 bd
       -0.0004633105 0.07742196 0.034409057 -0.10533543
0001b0 50 78 4f 3d 84 0e 72 3c 9e cb dc bc e2 9a 1d bc
       0.05065185 0.014773969 -0.026952561 -0.0096194465
0001c0 06 7c 91 3d 59 28 41 3d c1 b1 0f 3c 7e 69 8e bb
       0.07103734 0.04715762 0.008770407 -0.0043460717
0001d0 f4 9f cf 3d 1e 35 9f 3c 13 e5 49 bc 70 9b 4a 3d
       0.101379305 0.019434508 -0.012322682 0.049464643
0001e0 a4 0d 40 3d ca 02 9c 3d 79 b6 5c 3d 03 d8 dd 3d
       0.04688801 0.076177195 0.053884957 0.108322166
0001f0 d1 a0 66 3d 34 cb f9 3c ea de 44 3d 62 48 b2 3d
       0.05630571 0.030492403 0.04806415 0.08705212
000200 87 d1 d4 3c 19 3e 36 3d 7c e6 2c bb eb c5 fa bc
       0.025978817 0.044492815 -0.0026382497 -0.030611953
000210 fd 8a 3d bc 04 f2 14 bd b3 b2 84 bd 86 29 8b bd
       -0.011568782 -0.036363617 -0.06479397 -0.06795029
000220 31 da 73 bd e9 46 53 bd 22 dc 5e bc 6c 1e 8b bb
       -0.059534255 -0.051581297 -0.013602288 -0.00424557
000230 6e 80 43 bd 8e 61 50 3b e7 4e 0a bd 33 8e f4 bd
       -0.047729902 0.0031796428 -0.033766653 -0.11941185
000240 28 de 81 3d 62 0f fb 3c 90 d4 ca bb 5a 15 e3 3c
       0.06341201 0.030646984 -0.00618989 0.027720142
000250 59 bc a5 bb e7 14 19 3c fe 05 50 3c 88 ae aa 3c
       -0.005057853 0.009343362 0.012696741 0.020835176
000260 df 24 8a 3d be 15 5d 3d 8b 9b 84 3d d9 fe 38 3c
       0.06745314 0.053975813 0.0647498 0.011291229
000270 36 2f f3 3c 4b 59 82 3c af 9d cb 3c ea 61 f8 3c
       0.029685598 0.015911719 0.024855463 0.030320127
000280 8a f3 22 bd 21 d2 fe bc 95 a5 72 bd c7 bf 54 bd
       -0.03978304 -0.031106057 -0.059239943 -0.051940706
000290 b1 89 46 bd c1 c4 82 3b 56 b1 36 bd 87 49 47 bd
       -0.048471157 0.00399074 -0.044602714 -0.048654106
0002a0 4e b5 94 3b da 98 4a 3d 27 49 05 3c fe de 2b bd
       0.0045382148 0.049462177 0.008135117 -0.04196071
0002b0 0f 43 9d 3d ad 73 65 3c 24 4d 85 3c ee 5a 14 bd
       0.07678806 0.01400463 0.016272135 -0.03621953
0002c0 a9 ed 83 bc 19 3a 34 3d e2 d9 fe bb 9c c0 99 3c
       -0.016104536 0.04400072 -0.0077774385 0.018768601
0002d0 10 4b f1 3a fe 6f 25 3d 14 6a 15 bc 86 c0 37 3d
       0.0018409211 0.040390007 -0.009119529 0.04486134
0002e0 ca 01 90 3c 98 4a a4 bb 1d a0 03 3d c0 4a 72 3c
       0.017578978 -0.005013775 0.032135118 0.01478833
0002f0 44 76 d3 3b fd f4 d0 bc dc b0 6f bd 7c dd b1 bd
       0.0064533073 -0.025507445 -0.058518276 -0.08684823
000300 8a 12 b7 bd 71 8a c2 bd d6 d8 db 3d 13 0c 97 bc
       -0.08939083 -0.09499062 0.107347175 -0.018438375
000310 5c 6f 03 bd df 44 7d bd 3c 0d 9f 3b da 55 c8 3b
       -0.032088622 -0.06183326 0.0048538726 0.00611375
000320 a7 12 93 3b fe fd ea 3c 47 0a a6 3b 65 d1 0f bd
       0.0044883075 0.028685566 0.005067143 -0.035111804
000330 84 9f 49 bc df 8c 76 bc 2f 53 b6 bb 75 77 b8 bc
       -0.012306098 -0.015048235 -0.0055641155 -0.022517899
000340 0f 98 35 3c 66 98 38 bd 12 1a cc bc b6 d1 9b bc
       0.011083617 -0.045067213 -0.024914775 -0.019020896
000350 e2 c3 a3 bb 42 fb de bc 2e 98 b9 bb dd 2e 53 bc
       -0.0049977163 -0.027219418 -0.005663893 -0.012889591
000360 91 9c b1 bb 91 ca e3 3b 93 c4 96 bd 93 6e 98 bd
       -0.0054202755 0.006951638 -0.07361712 -0.07442965
000370 c5 41 85 bd ff 21 bb bd ee d0 e1 3c 5a 73 c3 3d
       -0.06506685 -0.091373436 0.027565446 0.09543486
000380 87 84 f1 bc dc a6 e7 bc b7 1a 24 bd 75 8b 86 bd
       -0.02948214 -0.028277807 -0.04006454 -0.06569568
000390 96 a5 45 3d c6 2e c0 3c 32 de 58 bc ee 1a 0a bc
       0.04825362 0.023459803 -0.013236569 -0.008429272
0003a0 7e 60 3d bc d1 41 08 3d 0a df 20 bc 8d be 69 bb
       -0.01155865 0.033265892 -0.009818802 -0.0035666556
0003b0 51 7a 47 bb a0 a8 42 bd d6 c5 37 bd a2 4a 27 bc
       -0.0030437896 -0.047524095 -0.044866405 -0.010210665
0003c0 97 2c 45 bc 07 88 7c 3c 46 5a fa 3c 33 2f b0 3c
       -0.012034557 0.015413291 0.030560624 0.021506881
0003d0 79 18 db 3c e2 b2 d4 bc b7 4b 93 bd a7 69 85 bd
       0.026745068 -0.025964204 -0.07192176 -0.06514292
0003e0 57 d9 84 bd 13 2e 9e bd 12 53 42 3c 13 54 dc bc
       -0.06486767 -0.07723632 0.011860626 -0.026895558
0003f0 0b e1 bd bc f0 71 89 bc 7a f9 79 3d 22 74 a7 bc
       -0.023178598 -0.016777962 0.061028935 -0.020441119

encoder.0.bias f4 [128]
000000 b1 28 a8 3b 84 19 d5 bb f2 20 bb 3d 11 e3 0e bd
       0.005131804 -0.006503286 0.09137143 -0.034884516
000010 f1 2a 2c 3d 79 82 50 3d 13 e1 1c bd 91 76 a2 bc
       0.04203314 0.05090568 -0.038300585 -0.019831927
000020 14 14 5d 3c 8e cd 85 bc c7 ff ca 3c e3 57 d6 3c
       0.0134935565 -0.016333368 0.024780167 0.026164955
000030 7a 1e 83 3c 7e 1f 45 3d c1 1c 2e bd a2 46 9a bc
       0.016005743 0.048125736 -0.04250789 -0.018832508
000040 23 29 cd 3b 12 f7 a2 3d 9d 78 ee bb 28 32 3f 3d
       0.0062610074 0.07957281 -0.007277562 0.046678692
000050 01 46 90 bc 08 e5 67 3d 24 c9 d6 3a db cb 6d 3c
       -0.017611505 0.056614906 0.0016386849 0.014513935
000060 18 27 e9 bc 64 9b 35 3d c8 73 90 bc 86 2f e4 3c
       -0.028461024 0.044337645 -0.017633334 0.027854692
000070 e0 be de 3b cc 33 ab 3d 35 aa 19 3c 58 9b b0 3c
       0.0067976564 0.08359489 0.009378959 0.021558449
000080 22 9e 76 3d 4e 91 62 3d cd e9 5e 3d 9e 40 3e 3d
       0.0602094 0.055314355 0.05442219 0.046448343
000090 e6 3e cf 3b 70 81 fb bc 0a 35 3a 3c 4c d1 c0 bc
       0.0063246367 -0.030701369 0.011365185 -0.0235373
0000a0 8e ea f0 bc ca 5b 9d 3c ca 12 21 3d 1e b0 1f 3c
       -0.02940872 0.019208807 0.03932456 0.009746579
0000b0 b1 2e 03 3c 40 59 67 3d 38 60 0a 3d c9 34 6a 3d
       0.008006738 0.0564816 0.033783168 0.057179246
0000c0 c1 82 1b 3d 06 a1 8e 3c d4 03 53 3c cd 1c fd 3c
       0.037966494 0.017410766 0.012879331 0.030897522
0000d0 63 e1 0c 3d af 90 37 3c e8 62 6c 3c ff 10 b4 3d
       0.034394633 0.011203929 0.014427878 0.08792304
0000e0 d5 a9 f0 3d 9f f7 90 3d 3b 19 c5 3d 7b 70 fb 3b
       0.11751143 0.0707848 0.09623953 0.007673321
0000f0 38 f0 eb 3c 0b 31 2e bd ae 53 dc 3c 20 d0 b7 3c
       0.028801069 -0.04252724 0.02689537 0.022438109
000100 9a 4f a3 3a da 21 ee bc 83 84 91 bc ac 60 69 3c
       0.0012459636 -0.029068876 -0.017763382 0.01424424
000110 aa 4e 7d 3d b7 85 e8 3d 56 94 ff bc bf 9f 31 bd
       0.061842598 0.11353629 -0.031198662 -0.043365236
000120 72 05 4b 3d ad f5 a6 3d 93 2f 76 3d 10 1a 12 3c
       0.04956574 0.08152328 0.060103964 0.008917347
000130 4a 9f 46 3c 36 40 67 bb 76 3c 1f 3d ff af 4e 3d
       0.012122938 -0.0035286075 0.03887602 0.05046081
000140 1a 85 d2 3b 9d 71 f9 3c a5 f8 12 3d ee a4 bf 3d
       0.0064245583 0.030449683 0.035881657 0.0935763
000150 e4 ea 82 bc 04 b7 8f bc f9 ab 76 3d da fe 9e bb
       -0.015981145 -0.017543323 0.0602226 -0.004852158
000160 c3 1b ad 3a cd 03 9f bc c6 07 8e 3b 8a 23 9f bc
       0.0013207126 -0.019410992 0.0043344228 -0.019426126
000170 cb 76 48 3c 1f 60 02 3c 87 88 c2 bc 26 bb 46 3d
       0.012235354 0.007957487 -0.023746742 0.048518322
000180 b8 66 9e bc 55 93 3f bd b9 4e 7f 3d d9 55 f3 bb
       -0.01933609 -0.046771366 0.062330935 -0.0074260053
000190 94 ea 0f bd c3 a4 04 bd d7 eb e1 3d f3 b1 22 bc
       -0.03513582 -0.03238369 0.11031311 -0.009930122
0001a0 ce fa 8f 3d 8a 39 0e bc b6 0e 4e 3d 3a 63 49 b7
       0.07030259 -0.008680711 0.050307 -1.2003637e-05
0001b0 0d 89 4c 3b d3 ef 54 bd fe 89 85 bc 05 ff 0d bd
       0.0031209618 -0.051986527 -0.016301151 -0.034667034
0001c0 0f 3d f4 bc 6f 01 fe bb 65 e8 3a 3c a3 28 7a ba
       -0.029814271 -0.0077516357 0.011407946 -0.00095427985
0001d0 f2 f8 5b 3c e8 c0 fb 3b 74 e3 33 3d 4f 10 e1 ba
       0.013426052 0.0076829083 0.043918088 -0.0017170998
0001e0 00 87 16 bd ca fa 0e bc 98 b9 2e 3d 1b 66 68 3c
       -0.03674984 -0.008726785 0.042657465 0.0141845
0001f0 f9 4d 90 ba 41 63 d6 bb 6c 0c f9 bb f9 ad 54 3d
       -0.0011009566 -0.0065425937 -0.0076003578 0.051923726

encoder.2.weight f4 [64, 128]
000000 4e ce 38 3c 3a b9 f4 bc 16 8e 81 bd b7 1d 67 3c
       0.011279656 -0.02987348 -0.06325929 0.014106206
000010 a2 ad 82 bc 26 73 f6 bb 9e 74 17 3d 46 84 74 3d
       -0.015951935 -0.007521051 0.03697645 0.05969646
000020 76 ba aa 3c c4 12 a5 bd 14 f3 f9 bc a3 91 51 3d
       0.020840865 -0.0806022 -0.030511416 0.05116428
000030 4c 1f ae bb 33 2c a7 bd ce a1 8c bd 3e 4b d9 bd
       -0.0053137895 -0.08162727 -0.06866799 -0.106100544
000040 19 80 0b bd e9 df 3f 3d f4 87 fb 3c bb 65 2c 3c
       -0.03405771 0.046844397 0.030704476 0.010522301
000050 30 5c ec 3b a1 24 c5 bd 4f 2c 83 3d 93 1b 72 3d
       0.007213138 -0.09626127 0.064049356 0.059108328
000060 b0 96 83 3d eb 03 75 bd 94 f5 28 bc c4 80 84 bd
       0.06425226 -0.05981819 -0.010312457 -0.064698726
000070 4f 73 27 bd 14 56 d7 bc e0 93 e1 bc 3b 76 8b 39
       -0.04088145 -0.026286162 -0.027536333 0.00026600235
000080 96 d3 8f bd 0f 0c c9 bd b8 b6 2d bd d8 58 65 3d
       -0.07022779 -0.09816753 -0.042410582 0.05599293
000090 50 18 b8 bd 4a d8 ea 3c a6 a7 57 3d ec 49 8b 3d
       -0.08989012 0.028667588 0.052650116 0.06801209
0000a0 3d ee c5 3c 3e fb 92 bd fc d2 b6 3b b8 9d 65 bd
       0.024161452 -0.07176827 0.0055793505 -0.056058615
0000b0 b0 2e 24 3b 0a ab 28 bd 52 3f 9b 3d 7a 2c ab bd
       0.0025052242 -0.04117874 0.07580437 -0.083580926
0000c0 09 1e 8c 3d fa 85 f8 3b 0b 1a f7 bc d3 4f 21 bd
       0.06841666 0.0075843306 -0.030163785 -0.039382767
0000d0 51 14 02 bd 2a bb 05 bd 0d c0 1b bd b6 e3 19 3d
       -0.031757656 -0.032649197 -0.03802495 0.037570678
0000e0 93 e7 e7 bc a7 04 b0 3c 3d b6 58 bb 53 61 b7 bd
       -0.028308665 0.021486593 -0.0033067607 -0.0895411
0000f0 c4 6f 6b bd ea 7a 52 3d 3d 43 08 3d a6 b4 86 3d
       -0.057479635 0.05138675 0.03326725 0.06577425
000100 01 11 96 3d b0 96 58 3c 89 6f 7a 3d 2a 17 ff 3c
       0.07327462 0.01321952 0.061141524 0.031138975
000110 3d c7 13 3d be 0b 4e bd 0e 12 f9 3c b6 17 86 3d
       0.03607868 -0.050304167 0.030404117 0.06547491
000120 2a 1e ec bb 25 60 51 bc 4b 31 ab bc 92 3f 81 bd
       -0.0072057443 -0.01277927 -0.020897528 -0.06310953
000130 36 5f 45 3d a4 bb 0c bd 13 e5 d5 3c ae 6d c6 bc
       0.048186503 -0.034358636 0.026110208 -0.024222221
000140 58 a3 5b 3d 42 84 97 3d ec 52 86 bd 94 7d a7 3c
       0.053622574 0.07398273 -0.06558785 0.020445623
000150 76 7d 15 bd 95 0b 8a 3d e7 2f c0 bc ea 58 fb ba
       -0.036496602 0.0674049 -0.023460342 -0.0019176279
000160 a2 ec 84 bd 99 06 cf bb e6 0d 0b 3d 31 e6 2a 3d
       -0.064904466 -0.006317925 0.0339488 0.041723434
000170 6c 54 eb bc 8f 9f c6 ba a2 bf 65 3d 3a f5 a2 bc
       -0.028726779 -0.0015153753 0.05609096 -0.019892324
000180 c3 fd c4 bd b2 a7 95 3d a5 9f 24 3d 13 db 83 3d
       -0.09618714 0.07307376 0.04019131 0.064382695
000190 19 dd 66 3d 2a 01 6f bd bf f2 84 3d 32 39 d5 3c
       0.0563632 -0.05835072 0.06491613 0.02602825
0001a0 8e f4 9f bd 14 94 da 3b f8 74 37 3d 14 84 b6 bd
       -0.07810317 0.0066704843 0.044789284 -0.08911911
0001b0 1b 80 a1 bd 9b b3 9d bd a6 ff 62 bd 2f d6 7c 3d
       -0.07885762 -0.07700273 -0.055419587 0.0617277
0001c0 78 65 27 3d d0 07 51 3d c8 72 04 bd 87 af 84 3d
       0.040868253 0.05103284 -0.032336026 0.06478792
0001d0 02 83 a0 bd cb 53 a9 3a 09 3b 39 bd 72 65 79 3c
       -0.07837488 0.0012918649 -0.045222316 0.01522194
0001e0 de 84 9c bc a2 c9 a3 bd 3f 20 13 bd 5b 58 96 3c
       -0.019106325 -0.07997443 -0.035919424 0.018352678
0001f0 26 86 1f bd 81 6e fb bc ae d4 61 bd 76 02 a8 3c
       -0.038946293 -0.03069234 -0.055134468 0.020508986
000200 30 e9 d1 bc 42 14 5e bc 2a fd c3 bd 9b a7 f6 bc
       -0.025623888 -0.0135546345 -0.095697716 -0.030109217
000210 5d ed 89 3c c9 0c 5b 3d e8 2f 39 3d a4 64 1f bd
       0.016836816 0.05347899 0.045211703 -0.038914338
000220 0e 2e 61 bc 77 9e cd 3c 57 35 3b 3c ee e9 6a bd
       -0.01374389 0.025099976 0.011426291 -0.057352
000230 18 af e2 bd bf 25 32 bd d1 e6 99 bd e3 a2 9a bc
       -0.11068553 -0.04349303 -0.07514728 -0.018876499
000240 ae ce df 3c 35 01 84 bd 2f be 06 3d fe d1 e3 bc
       0.027320232 -0.06445543 0.032896217 -0.027810093
000250 8a 54 27 3d da e2 ce 3c 85 a7 4d 3d 99 20 83 bc
       0.040852107 0.025254656 0.050208587 -0.016006755
000260 9a 1c 20 3d 4e 13 4a 3d d6 71 9f 3c c0 b1 54 3d
       0.039089777 0.049334817 0.01946346 0.051927328
000270 97 8b 2c bd 50 33 80 bc ad 94 10 bd fb 8a fd bd
       -0.04212531 -0.015649468 -0.03529804 -0.12380024
000280 e1 ba 1f bd 6c 79 84 3d ec 06 99 bd ec af e6 bd
       -0.03899658 0.06468472 -0.07472023 -0.11264023
000290 48 85 90 3d 56 84 6d bd f9 14 27 bd 01 ac f3 3c
       0.070566714 -0.057987534 -0.040791485 0.029745104
0002a0 9f f6 ff 3c 80 f3 44 3d 8f 97 90 bd d5 79 70 bc
       0.031245528 0.048083782 -0.070601575 -0.0146774845
0002b0 a8 c2 2c bc 34 17 0b be 63 dd a2 bd 4e f9 1a bd
       -0.010544457 -0.1358307 -0.079523824 -0.03783541
0002c0 06 6f 90 bd 12 5f 0e bd 97 d8 fe bd 33 1b ac 3d
       -0.07052426 -0.034758635 -0.12443655 0.08403625
0002d0 7a 82 5e 3d 51 c6 82 3d e5 50 02 bd 4d 6c df 38
       0.05432365 0.06385482 -0.03181543 0.00010653641
0002e0 b5 be d2 bd 57 7d 12 be e8 f4 cd bc ea 89 ce 3c
       -0.10290281 -0.14305626 -0.025141194 0.025212247
0002f0 bd b7 8a bd a0 56 59 3d e9 85 74 bc 4e a0 bd bd
       -0.067733265 0.053061128 -0.014924505 -0.09259091
000300 80 e9 8f bd b2 97 f3 3c be 3a f7 bb f9 3e 7d 3d
       -0.070269585 0.02973542 -0.0075448444 0.061827634
000310 49 af b5 bd 52 db 64 bc f8 44 0b bd 65 81 60 3c
       -0.088713236 -0.013968306 -0.03400132 0.013702725
000320 b7 59 1b be 72 7d 55 3b 0b 7a 41 3d 0d 91 ff 3c
       -0.15170942 0.0032575992 0.04723553 0.031197095
000330 05 77 f5 bc 1b 3b af 3c 48 aa 90 3d 40 3c 05 3c
       -0.02996398 0.021390488 0.070637286 0.0081320405
000340 6f f5 6c 3d 01 77 0f 3d f1 38 32 3c 92 3c 34 3b
       0.05785125 0.0350256 0.010877834 0.0027501923
000350 78 04 87 bd b7 97 71 bd 8a e2 87 bd 90 a3 c0 bd
       -0.06592649 -0.058982577 -0.06635006 -0.09406197
000360 26 34 eb bc 03 f7 75 3d cc ed a1 bd 7f 23 15 3d
       -0.02871139 0.06005002 -0.07906684 0.036410805
000370 cc cf c3 3d 64 8e 1d bd fc 71 11 3d 48 27 ab bd
       0.095611185 -0.038465872 0.035509095 -0.08357102
000380 0f a6 8f 3c b6 11 1a 3b 6d 80 2c 3c ca 96 92 3d
       0.017535238 0.0023509092 0.010528666 0.07157667
000390 71 54 b4 bd 18 e1 6b bd 6d a4 62 bc 09 75 14 3d
       -0.088051684 -0.057587713 -0.0138331475 0.036244426
0003a0 1f 99 11 3d de 77 15 bd e7 9d 90 3d e0 3f 65 3d
       0.03554642 -0.036491267 0.070613675 0.05596912
0003b0 e1 5c 5d 3d 0d 40 9f 3d 6d 5c 66 bd 8b f7 81 bd
       0.054043654 0.077758886 -0.056240488 -0.06346043
0003c0 53 16 11 3d 79 48 27 3c d0 5f 13 bb fb 84 c1 bd
       0.03542168 0.01021015 -0.0022487529 -0.09449192
0003d0 3e 3f 0d 3d db 83 85 bd 15 ff 87 bd ed ea f4 3c
       0.03448414 -0.0651929 -0.0664045 0.029897178
0003e0 a3 98 59 bd b3 ef dc 3c 49 7e a5 3d 8e 4d 80 bd
       -0.05312408 0.026969766 0.080807276 -0.062647924
0003f0 9f 0c b5 3d e0 64 84 bd 4d 88 1d bd 1b c3 f0 3c
       0.08840298 -0.06464553 -0.038460065 0.029389909

encoder.2.bias f4 [64]
000000 43 37 97 bd 14 24 2c 3c 6e c9 22 bc f5 fc a0 bc
       -0.07383587 0.010506649 -0.00993572 -0.01965187
000010 4f 48 11 be ea 76 b3 bd 11 00 ea 3c ac 94 e0 bd
       -0.1418774 -0.087629154 0.028564485 -0.10965857
000020 da 02 b2 bd 2f ed fb bc 31 7e b4 3d e6 ea f9 bc
       -0.0869195 -0.030752746 0.088131316 -0.030507516
000030 54 60 8a 3c 3f a5 47 3e cd 3b 1c be 9e 76 7d bd
       0.016891636 0.1949663 -0.15257187 -0.0618807
000040 eb ba 18 3e 8a 9b 82 bd 09 4b 39 bc 53 e5 5b 3d
       0.14915054 -0.06377323 -0.011309394 0.053685497
000050 d6 c2 4d bd 13 d5 37 be 15 f0 84 3d cd e9 3c 3c
       -0.05023464 -0.17952375 0.064911045 0.011530352
000060 d6 31 22 3d 33 82 60 3d 6c 5d 9c bc 5a 55 17 be
       0.03959831 0.054811668 -0.019087516 -0.14778653
000070 97 ab 98 bd ba c5 69 bd 20 01 7d 3d c6 c4 39 3e
       -0.07454603 -0.057073332 0.06176865 0.1814147
000080 c0 d5 a3 3d d3 aa 9c 3c 20 6e 34 bd 1c 1e e7 bd
       0.07999754 0.019124424 -0.044050336 -0.1128504
000090 01 02 d2 bd 66 4a b4 bd a1 1f 5b bc 91 c6 d5 3d
       -0.102542885 -0.08803253 -0.01337424 0.10438264
0000a0 38 9a 44 3d 6b f6 e0 3d d5 f2 99 3d 33 13 01 be
       0.047998637 0.109845005 0.0751702 -0.1260498
0000b0 91 98 f7 bc 56 08 4a 3d 32 6d a1 bc b4 e6 82 3d
       -0.030224117 0.049324356 -0.019705389 0.063916594
0000c0 44 49 1e 3d e6 d0 97 bd 92 eb 3f bb a4 8b 87 3d
       0.03864409 -0.07412891 -0.0029284698 0.06618431
0000d0 cb a9 06 be 69 7e 2f 3e 05 e2 26 3e 7b 81 88 bd
       -0.13150708 0.17138065 0.16297157 -0.066653214
0000e0 17 04 f9 bd ba a3 49 3b 44 2b eb 3c 63 f2 95 3d
       -0.12158983 0.0030767755 0.028707154 0.07321622
0000f0 a1 ba 92 bd 32 94 fc bc a2 78 0c 3e 7d 2c 40 3d
       -0.07164503 -0.030832384 0.13717893 0.046917427
