outputs/associative/text_encoder.pth (torch, 6860 bytes, 1 tensors)

embedding.weight f4 [20, 64]
00000000: 921a 22bd dbca 05bf f669 c3bf 14ae 1440
00000010: 233c 863f b76c 2d3e ef89 f9bd 9970 fcbd
00000020: 4dd0 ba3e 0608 003f 18da 87be 0745 1d3e
00000030: b9a8 b9bf e137 acbc 696b 99be 504b ee3f
00000040: ec0e cbbe afd1 c53e fe97 0ac0 d55f 85bf
00000050: a6ba b73e ae06 073d b8dc 913f b837 b53c
00000060: fb7d 363f 804d 053f 6c63 4dbf deed eb3e
00000070: e578 21be e791 02bf cde9 a6be f3a3 a9bf
00000080: bdd7 353f 35d7 6f3f 0902 10c0 c30a 1cbf
00000090: 2600 ae3f 9701 c53f b021 6c3f 092d ffbf
000000a0: 0c3a 8f3f d2ad 4a3e 9925 053f b5a4 e63f
000000b0: db6d b93f a6b0 8fbf d2b3 efbd 9e9e 5c3e
000000c0: 93a6 74be 5a89 e93f c56a bb3e 117c b5bf
000000d0: 6274 82bf 9565 34bf 12bc 953f ce33 b33e
000000e0: dff6 a33e 9c57 47be e38f 1a3e d1cb 943e
000000f0: 79a4 513e a9f5 b13f 26b9 9c3f 0bc4 5fbf
00000100: dd2d 8bbf e939 963f eacd 33bf 6c73 623f
00000110: 5f3f a8bf 7254 a83e 1bd4 493f f78d 653e
00000120: 76b4 603d ec4d b7bd bd74 2dbf d4ea 1b3f
00000130: e858 a73e 20cf 82be edf5 20bf 5282 e6be
00000140: 9706 37be cbb7 25bf 9863 9bbf c7e9 823f
00000150: 6b60 fa3a 7248 1abe 6989 383f 595b 66bf
00000160: 2166 633e 9e2d 91bf fb49 da3e 6f27 ac3e
00000170: 33ae 0640 6a12 e53f 66b4 813e 1ad4 c03e
00000180: fa79 d3bf 7375 913e b8dc 1bbe f8e2 b6bd
00000190: ff14 b43e 42ed 0a40 d70d aabf bab3 c6be
000001a0: 687f d73e f430 983f 1ff7 ca3f d654 ac3e
000001b0: 5212 d8be 4a63 41be 728c 263f 1027 92bf
000001c0: 7160 3c3e 6fd6 b9be ad2f 493f f007 65be
000001d0: c98e 9c3f 5917 a3bf ef3c a13f 70d8 533e
000001e0: 2ace 07bf 14b5 ba3f c6b6 453e e8df 8dbe
000001f0: 7444 cebe 2e07 263f 1f31 07bf cd09 7abe
00000200: a1f9 1e3f ffe4 f1be e5a9 99be 4b1b 37bf
00000210: cc9e e23d cca3 34bf f9cd 4d3e c96d 42bf
00000220: 6751 b83f 5f69 e93f fd72 bcbe 5157 5e3f
00000230: a889 2a3f 7787 53be cfaf fe3e a671 693e
00000240: 39f7 e8be d2a6 943b 6a78 a83e c742 b03f
00000250: ca0a 173f 4dc2 06bf 9ed5 853e a49f f83e
00000260: 8240 59be 7735 b43f 0650 8abf 1a04 9abf
00000270: deb7 38bf 3ef5 5dbf c505 59be 0485 f23e
00000280: ba36 4f3f 1887 6b3f dca3 993e 876c 88be
00000290: 94ce fd3e 4b32 9d3e fbdb b63f 4780 f83e
000002a0: b421 78bf 6adb cabf e029 393e bcc0 09bf
000002b0: 3764 383f 21e5 0a40 e0d9 9cbe 2d77 293f
000002c0: 72d3 0cbf 0142 4c3d 8eda b9bf f834 a03f
000002d0: 4d49 d23d 8d6e cfbe c956 70bf 4ef5 e6bf
000002e0: 0ea7 2dbf 7544 4fbf b45a ddbe 8e13 8cbe
000002f0: 1e04 3e3f dd46 65be 0adb 11bf 8322 6c3f
00000300: 50d1 c8bf 76bf 9c3f c073 dd3e ad5a 16bf
00000310: d139 b3bd 08fe b5bf f02c 5ebf 9cb5 733f
00000320: f1a5 823f b1dd 03bf efe7 28be 4ef2 f53e
00000330: 433c ab3f bfc0 27bf 5936 99be e53c b43e
00000340: 6680 cc3e 85b5 ab3f 0478 a1bf d8c6 323f
00000350: 21fc 28bf 69fe ae3c 18c8 52bf c8dc 873e
00000360: a444 d93e c010 c5bf dc02 593e beb2 f03f
00000370: 3a7a 0740 5840 4cbf e9eb 86bf 097e c4be
00000380: 2593 2c3f 6df4 093e 414a ddbe 6afe 67bf
00000390: 9da2 9c3f 44cd 823c 4e46 f53e 6cff a3be
000003a0: 1f5f bf3f bd9a 153f 1322 f53d 4c33 64be
000003b0: 91dc e7be b632 0040 bf3c 3cbf 9b2b 1dc0
000003c0: cfad 40bf dc6e 02be a368 cb3e d293 b9bf
000003d0: 0444 cbbe b64a 97bf cbff 59bf a193 273f
000003e0: 314c 0bbc 5210 503f 6fdd 24be 5a2f 693f
000003f0: f9d5 963f a46f fb3d 9ec2 0a3f f1e4 82bf
-0.03957612 -0.5226266 -1.5266712 2.323125 1.0487102 0.16936003 -0.12184512 -0.12326164
0.36487046 0.5001224 -0.2653358 0.15358363 -1.4504615 -0.021022739 -0.2996476 1.8616734
-0.39659822 0.38636538 -2.1655269 -1.0419871 0.3588459 0.032965355 1.1395483 0.022121295
0.7128598 0.5207138 -0.8022983 0.46079916 -0.15768774 -0.5100388 -0.3260025 -1.3253158
0.71032315 0.93687755 -2.2501242 -0.6095392 1.3593795 1.539111 0.92238903 -1.9935619
1.118959 0.1979287 0.52010494 1.8019015 1.448665 -1.1225784 -0.1170422 0.21544883
-0.23891668 1.8245041 0.36604896 -1.4178487 -1.0191767 -0.704675 1.169802 0.3500046
0.32024285 -0.19467014 0.15093951 0.2906175 0.20472898 1.3903095 1.2244003 -0.8740851
-1.0873371 1.1736423 -0.70236075 0.8845737 -1.3144339 0.32876927 0.7883927 0.22417437
0.0548596 -0.08950409 -0.67756253 0.60905194 0.32685018 -0.2554865 -0.6287525 -0.45021302
-0.17873608 -0.6473357 -1.2139769 1.0227593 0.0019102221 -0.15066698 0.7208467 -0.89983135
0.22206928 -1.1342046 0.42634568 0.33623835 2.1043823 1.7896245 0.25332946 0.3766182
-1.6521599 0.2840992 -0.15220916 -0.089300096 0.3517227 2.170731 -1.3285474 -0.38808995
0.4208939 1.1889939 1.5856665 0.33658475 -0.42201477 -0.18885532 0.6505805 -1.1418171
0.18396164 -0.36296412 0.7858837 -0.22366309 1.2231075 -1.27415 1.259672 0.20688033
-0.53048956 1.4586511 0.19308004 -0.2770989 -0.402866 0.64854705 -0.5280933 -0.24417801
0.62099653 -0.47245023 -0.30012432 -0.7152602 0.11065444 -0.70562434 0.20098104 -0.7594877
1.4399842 1.8235282 -0.3680648 0.86851984 0.66616297 -0.20657144 0.49743506 0.2279726
-0.45501116 0.004536488 0.3290437 1.3770379 0.5900084 -0.5264023 0.2613954 0.48559296
-0.21216014 1.4078816 -1.0805671 -1.2032502 -0.7215556 -0.86702335 -0.21193607 0.47367108
0.8094288 0.9200301 0.30007827 -0.266453 0.4957167 0.30702433 1.4285883 0.48535368
-0.96926427 -1.584821 0.1808238 -0.53809714 0.72027916 2.170235 -0.30634975 0.6619747
-0.5501014 0.049867634 -1.4519823 1.2516165 0.10267887 -0.4051403 -0.93882424 -1.8043611
-0.6783303 -0.8096383 -0.43233263 -0.2735867 0.7422503 -0.22390313 -0.5697485 0.9224016
-1.5688877 1.2245929 0.43252373 -0.5873211 -0.08751262 -1.4218149 -0.8678732 0.9519899
1.0206891 -0.5151015 -0.16494726 0.48036426 1.3377765 -0.6552848 -0.29924276 0.3520271
0.3994171 1.341477 -1.2614751 0.6983466 -0.6600972 0.021361547 -0.8233657 0.2653563
0.4243518 -1.5395737 0.21192497 1.8804548 2.116835 -0.7978568 -1.0540744 -0.38377407
0.67412025 0.13472147 -0.43220714 -0.9062258 1.2237126 0.015967019 0.479052 -0.3203081
1.4950904 0.58439237 0.1196939 -0.22285193 -0.45285466 2.0030951 -0.7353019 -2.4557865
-0.7526521 -0.12737602 0.3972827 -1.4498236 -0.3970033 -1.1819675 -0.85155934 0.6545964
-0.008502052 0.812749 -0.16100095 0.9108788 1.1784049 0.12277153 0.5420321 -1.0226117
