outputs/associative/text_encoder.pth (torch, 6860 bytes, 1 tensors)

embedding.weight f4 [20, 64]
00000000: 09db 64be dff8 0640 6fe0 0d3f 8933 51bf
00000010: 81f4 e83f 40e8 16c0 6191 4bbe 49d4 30c0
00000020: 193e 0cbf f3d0 b13f a988 013f c337 7fbe
00000030: 605c 23bf d6af 943e 42c4 7bbf 19cc a53e
00000040: ca4b 4bbf fc4e 1a3f 3eed 88bf b550 f3be
00000050: bab8 ca3d 4dd4 2abf edaf 273f b5c9 16bf
00000060: d2a5 8a3f 187a 42bd e05e d0be 7bb7 a5be
00000070: 3d18 aa3e 758c 853f b4a8 93bf 4c6a 933f
00000080: 74be 0c3f 305f 5cbe 07c7 97be 7e97 24bf
00000090: 4078 9fbf 7931 903f 0389 08bf 3879 4e3f
000000a0: 9d61 2fbf c450 13be 0fdd bebe a653 25be
000000b0: 3db9 32bf 0d12 67bf 9318 c63f f05a 883f
000000c0: ba58 fabe 3a19 163c bb07 ce3f 9a1d f23e
000000d0: ad2e 43bf 2d9e 20bf 1048 28bf fe2d a6bd
000000e0: fddc abbf c8fd 343d 4252 ccbe 9028 c2bd
000000f0: e6b2 d63f e76b d5be 3a0a 173f 5cac d8bc
00000100: 1347 6dbf 32f8 de3e 0f32 1d3f c0cc d23f
00000110: aaa1 7c3e 28da c83e 7af2 4ebe 706e 1cbf
00000120: 44f6 a9bf e223 583e cb8a 5ebe 6313 abbe
00000130: 2bae c4be 1769 a0be de1c 103f 44da 12bf
00000140: 820a 35bf 73de 51be 2810 01be 2272 393f
00000150: 4ca5 53be 6c8a ddbd 0cdf 09bf 1d27 033f
00000160: 0e65 78be 37be 0c3f 1b51 04bf d6e2 8bbe
00000170: c125 80be 63e2 563e f5f1 813f 61e5 23bf
00000180: 1d68 d53d 3636 893f 7020 4b3e 32b0 8b3f
00000190: 8c04 763f 335f 82bf 713c bdbe a94b 893f
000001a0: 531f 6abe 4516 9d3f ae3a d43f d0dc a23f
000001b0: 748e b8be 592d ddbf 02d4 e7be 0bf7 843f
000001c0: b218 6cbf 19f4 9e3f 188b dabe a93c 8f3f
000001d0: 9668 843e 9c23 82be ecb3 993e 1dcc 68be
000001e0: 8cb7 6abd e2a2 94bf 9f1b 943f fd19 d9be
000001f0: 9bb5 803d c4d8 00c0 2b7a 2d3f 604d 5b3c
00000200: fb51 a03e c4bb 193f 9a73 e1bd 491d d33f
00000210: 243e 053e 2092 663f 608e 99be b12c 1fc0
00000220: 3f06 a7be 72cf 8ebd 0765 f73e 7465 963f
00000230: c9b5 97bf 12eb 1abf c5bd 9bbf bb56 df3d
00000240: 06ff fe3c 8c45 573f 24ac adbf a8f9 643f
00000250: efd2 fbbf d7b4 943f 3c8b 863e 6158 283f
00000260: cab7 2cbf 4258 983f 4379 22be dd40 07bf
00000270: a862 ac3f a193 99bf 3dc4 f3be 81ba 303f
00000280: e59f 403d b1c2 cebe 58a3 d2be 69c6 dd3e
00000290: 5bfc 85bf cd8f 2f3e 98c2 8d3e 841f 2a3f
000002a0: de8b e93e 4b8b ef3d dfcd cebf fb08 85be
000002b0: bff7 273d e84e 93be ece6 82bf dc65 e2be
000002c0: d3a9 153f 9771 81bf 8868 ef3e 5829 1fbf
000002d0: 0a08 de3e 8888 afbf 8041 b4be 9c49 9c3f
000002e0: 669e 97be 40e8 e83d fbd8 b93f 8ad2 aabd
000002f0: f38f 1bbf 557b 31bf c534 3dbd 19ec 9abe
00000300: c3fe a93f 69c7 3c3f d531 68bf 1c4b a53f
00000310: fef3 02bf 5f38 463f a37e 95bf 6dab 6ebf
00000320: 325d 3b3f 9f33 f9bd b925 52bd bfa8 363f
00000330: 05c8 bd3d cbc6 053f 57e4 e9bc a47f 6b3f
00000340: 812c 1fbc eaa3 1bbe dae4 72bf 68aa 323f
00000350: 0782 1bbf e657 aa3f d539 133f 352a aa3e
00000360: 0922 b83e 8f66 42bf a737 b13e 55f7 3cbf
00000370: 065c d3be fbb2 1b3f abd6 c93f 0f5a 60bf
00000380: 7bfc 093e 5b60 693e 649a 9f3e 41d3 96bd
00000390: 9c2c 95bf 73d5 8cbe 116d 013f 6a82 24be
000003a0: 223f 373f be85 1c3f 0a10 ccbe 8ab2 01bf
000003b0: b83b 07be 411b 303f f6cd 13bf e6bc edbe
000003c0: d8d7 0f3e 39ce 9bbf c857 993e 0c9b 64be
000003d0: e76f a9bc 1314 50bf b911 30bf caca f5be
000003e0: 627a e7bf 5e37 473f 1fe2 77bf dd78 97bd
000003f0: b4b1 5f3e d242 623e d502 963f 12e3 20bf
-0.2234918 2.10894 0.55420583 -0.8171926 1.8199617 -2.3579254 -0.19879676 -2.7629569
-0.54782254 1.3891891 0.5059915 -0.24923615 -0.6381283 0.29040402 -0.9834634 0.32382277
-0.7941252 0.6027677 -1.06974 -0.47522512 0.09898515 -0.66730195 0.65502816 -0.5890153
1.0831854 -0.04747972 -0.40697384 -0.32366547 0.33221617 1.0433489 -1.1535859 1.1516814
0.5497811 -0.21520686 -0.29644033 -0.6429366 -1.2458572 1.1265098 -0.53334063 0.80653715
-0.6850832 -0.14386278 -0.3727803 -0.1614519 -0.698139 -0.9026192 1.547625 1.0652752
-0.48895818 0.009161288 1.6096109 0.4728821 -0.76243097 -0.6274136 -0.6573496 -0.08114241
-1.3426815 0.044187337 -0.39906508 -0.09480393 1.6773345 -0.41683885 0.5899998 -0.026449375
-0.92686576 0.43548733 0.6140451 1.6468735 0.24671045 0.3922894 -0.20209685 -0.61106014
-1.3278279 0.21107438 -0.21732633 -0.33413228 -0.3841413 -0.31330177 0.5629405 -0.57364297
-0.7071916 -0.20495014 -0.1260382 0.7243978 -0.20668525 -0.108174175 -0.5385597 0.5123156
-0.242573 0.54977745 -0.5168626 -0.273215 -0.25028804 0.20984797 1.0151964 -0.6402188
0.10420249 1.0719669 0.19836593 1.0913146 0.9610069 -1.0185302 -0.36960176 1.0726215
-0.22863512 1.2272421 1.6580408 1.2723637 -0.36046183 -1.7279464 -0.45278937 1.0387892
-0.9222518 1.2418243 -0.42684245 1.1190387 0.25861043 -0.25417793 0.30020082 -0.22734113
-0.05730395 -1.1612208 1.1570929 -0.4240264 0.062846385 -2.0132303 0.6776454 0.013385147
0.31312546 0.6005213 -0.110083774 1.6493312 0.13011986 0.9006672 -0.29991436 -2.4871027
-0.32621953 -0.06973161 0.48319265 1.1749711 -1.1852351 -0.6051494 -1.2167288 0.109052144
0.031127464 0.84090495 -1.3568158 0.89443445 -1.9673747 1.1617688 0.26278102 0.65759856
-0.6746794 1.1901934 -0.1586657 -0.5283335 1.3467607 -1.1998178 -0.47610655 0.6903458
0.047027487 -0.40382913 -0.41140246 0.43315437 -1.0467638 0.171447 0.27687526 0.6645434
0.45614523 0.1169649 -1.6156577 -0.25983414 0.041007753 -0.28771138 -1.0226722 -0.44218338
0.58462256 -1.011279 0.4675944 -0.6217246 0.43365508 -1.3713541 -0.35206223 1.2209964
-0.29613036 0.11372423 1.4519342 -0.083409384 -0.60766524 -0.69328815 -0.046192903 -0.30258253
1.3280872 0.73741776 -0.9070104 1.2913547 -0.5115355 0.77429765 -1.1679271 -0.93230325
0.7318908 -0.12168049 -0.051305506 0.71351236 0.09266666 0.5225646 -0.028551264 0.9199164
-0.0097152 -0.15199247 -0.9488045 0.6979127 -0.6074528 1.3308074 0.5751012 0.33235326
0.35963467 -0.7593774 0.34612772 -0.738149 -0.41281146 0.6081998 1.5768636 -0.8763742
0.1347522 0.22790663 0.31172478 -0.07364512 -1.1654239 -0.275066 0.5055705 -0.16065374
0.7158071 0.61141574 -0.39855987 -0.50663054 -0.13206375 0.68791586 -0.57736146 -0.4643318
0.14047182 -1.2172309 0.29949784 -0.2232477 -0.020683242 -0.8128063 -0.6877704 -0.48006278
-1.8084223 0.7781886 -0.9682941 -0.073961 0.21845132 0.22095802 1.1719614 -0.6284648
