outputs/associative/text_encoder.pth (torch, 6860 bytes, 1 tensors)

embedding.weight f4 [20, 64]
00000000: 231f 48be 5bd2 0840 8c43 783f e106 0bbf
00000010: d216 3d3f 0dda 033f c0f2 4cbf 6d7b debf
00000020: f1e2 db3e 30d4 523f 998f aebe b8ec 0340
00000030: 2581 b9be 2224 e03f 2d8c a6be aff7 923e
00000040: 65a0 a03d c7e6 ed3e 3e2c c3bf 5c8a d53e
00000050: dc72 acbc 99e3 f73e 7b84 8e3f 0df2 0cbf
00000060: 86cc 2abf b324 4abe 14d2 e7bf 6fb3 a5bf
00000070: e47b 9bbe 7861 1bbe f74b 2ebf 986b 8f3e
00000080: 09da ad3e 352c aa3d 38f3 5dbe a77c e2bd
00000090: e057 c63f dbd7 193f 2184 03c0 5324 25bf
000000a0: 98f7 9e3f 067f 0fbf 28d7 ef3e c002 70be
000000b0: b78c df3e 0e66 0ebf d0d2 d9bd b23a c9bd
000000c0: bf3c 46bf a938 a9bf deb2 f7bd 0d41 a73f
000000d0: 7a92 f43d 3bbb 0ebf 6da9 e4be e7c8 863f
000000e0: 92a7 f03e bb9f 8fbf 2267 18bf c879 30bf
000000f0: 7b82 17be c354 163f e6c8 013d 78f2 13c0
00000100: 35a4 f93f c014 41be c5fe eb3e eb5e 9cbe
00000110: a75c d53e 8453 3040 bebf 8e3f 9ae4 edbf
00000120: 5779 54bd b682 1140 f151 e4be 4f97 9a3e
00000130: 03a5 8bbf 94a0 903f a5cb fb3f a668 b3bf
00000140: 5720 0940 6390 babf bd8e 0dbe 9a4e f6bb
00000150: 1b6c 1f40 80ac e5bf e2ac ab3f eedf a2bf
00000160: f1fb 373f a288 e33f 51ef 51bf 3a91 49bf
00000170: 94b8 8dbf 920d 30bf 2435 d4bf 9886 24bf
00000180: 25e9 3ebf 8e6a 57bd fab3 b4bf bdd2 0fbe
00000190: 83f0 4abf 4380 ea3e 7bf5 cdbe 026a 233f
000001a0: 19cf f03e fb27 a33f 42b9 183f f3b9 e73d
000001b0: d8ac ccbe a30f 48bf 14ab d83e 4577 723e
000001c0: b1be b5bf cfff 663f f289 45c0 b848 c13f
000001d0: 4bcd 2a40 566f 91be f11e 0340 28ef b5be
000001e0: 41ae 733f b5c1 57bf 10e9 43bf 1db4 82bf
000001f0: 2e5d ef3e 735a d13f 2e16 c5bf 7de0 91bc
00000200: 1374 33bf 4cdf 1c3f 6d55 ca3e 5a61 79bf
00000210: 7c4e 913e e8e7 57bf 4022 423f 5cf2 e4bf
00000220: 8229 d4bf 7710 ffbf 5346 023f 026d 2a40
00000230: 5e53 963c 8b5c 973e b605 78bf 3855 eebe
00000240: ad5d 8a3e aef2 b3bf 2093 92be 8bbf 303f
00000250: 0805 993f d59b 1abf ca98 8d3f 19c2 833e
00000260: 7aca 83bd 18a7 a43f 8fde be3e 5d84 c4be
00000270: eb28 28bf 0ea3 b9bf abc7 6a3f e6aa 223f
00000280: 66d9 3e40 decb b43e 3e82 89bf a571 a9be
00000290: d1e2 c4bf 1a36 2dbf a6d4 1bbe f12c 14be
000002a0: 4028 6b3f 8afd f33f 2c9a 213f 1245 7dbf
000002b0: 43a4 82bf ddfa 1c3f 7c7c 553f 5e42 a7bf
000002c0: f219 463f 6690 9cbd b2b3 0cbe 60ae 733d
000002d0: b904 a3bf f3e8 e7bd 197b 5c3f 58f1 b2bf
000002e0: 9d6e 4dbe e94c bd3e 73bb 593f 3911 e33f
000002f0: 92de 89bd 4140 603f 78cc 753e b278 2a3f
00000300: eb18 82bf bbcf 683f 30c9 cb3e 5bb5 18bf
00000310: 02a0 fbbe e6e3 7c3f aba2 c4bf 811b c1bd
00000320: 2481 e6be 2a93 f03d 1839 7abe 6936 54be
00000330: 7a47 26be c9ea 21bf 3adf 9f3f 266a ab3f
00000340: 1d59 bebf c57e 823f a0d9 e73b 2bdc 24bd
00000350: 9e22 033f 94ca bcbf 737c 0cbf cdfd 77bf
00000360: 21e9 8e3e 4889 ab3f f008 2fbe 1ea9 cebe
00000370: fae0 82bb 0d3b 47bf fd2f 8cbf b77b 7dbf
00000380: 107c a4bf 8cc9 97bf 7499 0abe 7376 5c3f
00000390: 1318 e3be 81cd ec3f 1ae0 233f df75 8dbf
000003a0: e81d 96be d521 c5bb b3fc ca3e 36cb 443f
000003b0: c072 8cbe 8968 7b3e 452d 7d3f 1f57 843f
000003c0: ceb4 de3e 6ed6 843f dc58 123f 7841 ad3f
000003d0: 8f12 eabf 73d0 523f 4a41 90be 5579 afbd
000003e0: 6189 0e40 5f55 6d3e 658e 943e 990f 7f3e
000003f0: 23df 123f bde4 14bf 8019 48bc 1f5c 64bf
-0.19543128 2.137839 0.9697807 -0.5430737 0.73862946 0.51504594 -0.8005791 -1.7381417
0.4294658 0.8235502 -0.3409393 2.0613232 -0.36231342 1.7511027 -0.3252882 0.28704593
0.07843093 0.46465132 -1.5247877 0.41707122 -0.021050863 0.4841583 1.113418 -0.5505684
-0.6671833 -0.19740562 -1.8110986 -1.2945384 -0.3036796 -0.151739 -0.68084663 0.28011775
0.3395541 0.08309213 -0.21674812 -0.11058932 1.5495567 0.60094994 -2.0549395 -0.6450855
1.241931 -0.560532 0.4684384 -0.23438549 0.43662044 -0.55624473 -0.106359124 -0.09825648
-0.7743644 -1.3220416 -0.12094663 1.3066727 0.11942001 -0.5575444 -0.44660512 1.053006
0.47002846 -1.1220621 -0.5953237 -0.68935823 -0.14795868 0.58723086 0.031685732 -2.311674
1.9503237 -0.18855572 0.4609281 -0.30541167 0.4167225 2.7550974 1.1152265 -1.8585389
-0.05187353 2.273603 -0.44593766 0.30193564 -1.0909733 1.1299005 1.9671522 -1.4016311
2.1425989 -1.4575313 -0.13823982 -0.0075166943 2.4909732 -1.7943268 1.3412135 -1.2724588
0.7186881 1.7776072 -0.8200579 -0.78737223 -1.1071954 -0.68770707 -1.6578717 -0.64267874
-0.745745 -0.052591853 -1.4117424 -0.14045234 -0.7927324 0.4580098 -0.4022635 0.6383363
0.47033003 1.2746576 0.5965768 0.11314764 -0.3997562 -0.7814886 0.42318022 0.2367831
-1.4198819 0.9023408 -3.0865445 1.5100317 2.66878 -0.28405255 2.0487635 -0.35534024
0.95187765 -0.8427995 -0.765275 -1.0211216 0.46750778 1.6355728 -1.5397394 -0.01780724
-0.7009899 0.61278224 0.395183 -0.9741417 0.2838019 -0.84338236 0.7583351 -1.7886462
-1.6575167 -1.99269 0.50888556 2.6629033 0.0183503 0.29562792 -0.96883714 -0.46549392
0.27024594 -1.4058435 -0.28627872 0.6904227 1.195466 -0.6039403 1.1062253 0.25734022
-0.06435104 1.2863493 0.37279174 -0.38382235 -0.65687436 -1.4502885 0.9171092 0.6354202
2.982019 0.35311788 -1.0742872 -0.33094516 -1.5381719 -0.6766068 -0.15217838 -0.14470269
0.9185829 1.9061749 0.6312587 -0.9893352 -1.0206379 0.61320287 0.83393073 -1.3067129
0.7738334 -0.07644729 -0.13740423 0.05949247 -1.2735816 -0.113237284 0.8612533 -1.3979902
-0.20061727 0.3697274 0.8505165 1.7739631 -0.06731905 0.87598044 0.2400378 0.66590416
-1.0163854 0.9094197 0.3980193 -0.59651726 -0.49145514 0.98785245 -1.5362142 -0.09429074
-0.450204 0.11746819 -0.24435842 -0.20723881 -0.16238204 -0.6324888 1.2489998 1.3391769
-1.4870945 1.0194937 0.0070755035 -0.04024903 0.51224697 -1.4749322 -0.54877394 -0.96871644
0.27912238 1.340127 -0.17093253 -0.403634 -0.0039941045 -0.7782448 -1.0952145 -0.990169
-1.2850361 -1.1858382 -0.135351 0.8611824 -0.44354305 1.8500215 0.64013827 -1.1051596
-0.29319692 -0.006015996 0.3964592 0.76872575 -0.27431297 0.24551596 0.988972 1.0339087
0.43497318 1.0377939 0.5716684 1.3535604 -1.8286914 0.8234932 -0.28174812 -0.08568064
2.227135 0.23177098 0.29014888 0.24908294 0.5737173 -0.58161527 -0.012213111 -0.89203066
